src/iMLP/models/ONNX/plant/IMTS_Plant_AraMaizeRice.onnx (onnx, 25191 bytes, 14 tensors)

W f4 [200, 1]
0	0xbe16343d	-0.14668365
1	0xbde2af8d	-0.1106864
2	0x3d2780fa	0.040894486
3	0xbe2e8fc8	-0.17047036
4	0xbd1d2c52	-0.038372345
5	0x3deb2d7f	0.11483287
6	0x3cf672ad	0.030083979
7	0xbdf46d1e	-0.11934875
8	0x3d16f327	0.036852982
9	0x3d23c956	0.03998693
10	0xbe1b3f6d	-0.15160914
11	0x3d7b87ed	0.061408926
12	0x3d6f4e9e	0.058424585
13	0xbd972278	-0.07379621
14	0xbd1c8318	-0.03821096
15	0xbdb60df7	-0.08889382
16	0xbd82d2b6	-0.06387846
17	0x3de4aa37	0.111652784
18	0x3c72a7d6	0.014810523
19	0xbd3a5566	-0.0454916
20	0xbd30bc0c	-0.043148085
21	0x3d9532af	0.07285058
22	0xbb1ddc95	-0.0024087776
23	0xbd0eca09	-0.034860644
24	0xbd949a60	-0.07256007
25	0xbe0d8187	-0.13818942
26	0xbe065771	-0.13119294
27	0xbe183557	-0.14864098
28	0x3d85ca7d	0.06532762
29	0x3d6ece9d	0.05830251
30	0x3de1c248	0.11023384
31	0xbd3a5492	-0.04549081
32	0x3c8fa155	0.017532984
33	0xbc1d491f	-0.009599953
34	0xbdcf1983	-0.10112288
35	0x3d2bdfba	0.04196141
36	0x3de39a29	0.11113388
37	0xbda4a815	-0.080398716
38	0xbe13822a	-0.14405122
39	0xbd991617	-0.074749164
40	0x3e3fdbe1	0.18736221
41	0xbd7a830b	-0.06116013
42	0x3bcdc945	0.0062800967
43	0xbe1953af	-0.14973329
44	0xbc6fde2f	-0.014640375
45	0x3e2a4aa7	0.1663004
46	0x3cec425c	0.028840236
47	0x3e0be27f	0.1366062
48	0x3df179a4	0.11790779
49	0xbdcbac88	-0.09945017
50	0x3d4cfda0	0.050046563
51	0xbc9a5522	-0.018839423
52	0x3d125632	0.035726734
53	0x3d84d405	0.06485752
54	0xbe1103dc	-0.14161628
55	0xbd5d4e47	-0.05402973
56	0xbe08f561	-0.13374855
57	0xbe08858c	-0.13332194
58	0xbd9b0910	-0.07570088
59	0xbe0bbfea	-0.13647428
60	0xbe2205a4	-0.15822464
61	0xbe0e40ce	-0.13891909
62	0xbdb22a61	-0.086994894
63	0xbd59e529	-0.05319706
64	0x3e118f3d	0.14214797
65	0xbc4efb52	-0.012633162
66	0x3e2a4bc0	0.16630459
67	0xbe07fc5d	-0.13279863
68	0x3d89815c	0.067141265
69	0x3d2f09e7	0.042734053
70	0x3d790f29	0.060805473
71	0x3e07403f	0.13208102
72	0x3d2abf76	0.041686498
73	0xbc8de347	-0.017320288
74	0xbdbee19a	-0.09320374
75	0x3e133c3b	0.14378445
76	0x3d0235b8	0.03178951
77	0x3c3cfa66	0.011534309
78	0x3ced7548	0.028986588
79	0x3d67bd3e	0.05657696
80	0x3cec727b	0.028863182
81	0x3d84c3b5	0.06482641
82	0x3ba7f851	0.005126037
83	0x3d1a51a5	0.03767552
84	0x3d9f96e9	0.07792456
85	0x3dd44b60	0.10365939
86	0x3d9b8a00	0.07594681
87	0xbd9706dc	-0.07374355
88	0xbe27d500	-0.16389847
89	0xbddf8d7e	-0.10915659
90	0x3b323afa	0.0027195797
91	0x3dab4ff4	0.08364859
92	0x3da31f57	0.07964962
93	0xbd827583	-0.0637007
94	0xbdd12b05	-0.102132834
95	0x3d6f073a	0.0583565
96	0xba8ef5f5	-0.0010907041
97	0x3e1ba3df	0.1519923
98	0x3dfd1377	0.12357228
99	0x3da64e6d	0.08120427
100	0x3daf10c5	0.085481204
101	0x3e3436d2	0.17599037
102	0x3db30030	0.0874027
103	0xbe59e278	-0.21277797
104	0x3e7324d2	0.23744515
105	0xbdc35c04	-0.09539035
106	0x3e3f8e4a	0.18706623
107	0xbe33f14e	-0.17572519
108	0xbdf26211	-0.11835111
109	0xbd39e5e8	-0.04538527
110	0x3d69ef33	0.057112884
111	0x3d9a1755	0.075239815
112	0x3d9ce558	0.07660931
113	0xbe47041a	-0.19435158
114	0xbe127b71	-0.14304902
115	0xbca62406	-0.02028085
116	0x3d9170f5	0.07101623
117	0xbd3a6d7a	-0.04551456
118	0x3cb792ba	0.022408832
119	0x3d1d7ede	0.038451068
120	0x3dac1771	0.084029086
121	0xbdb82c82	-0.08992864
122	0xbe057f51	-0.13036849
123	0x3e03d5c1	0.1287451
124	0x3e0c0051	0.13671996
125	0xbe1c88f9	-0.15286626
126	0x3e0238c2	0.12716964
127	0x3d25bd7e	0.040463917
128	0xbdca32d7	-0.09872978
129	0xbc4701f4	-0.012146462
130	0x3ddc3391	0.10752023
131	0xbd8a245d	-0.06745217
132	0xbcef79e3	-0.029232925
133	0xbe0b6307	-0.13611995
134	0xbe30932d	-0.17243643
135	0xbc165a23	-0.009176764
136	0xbe1e4a96	-0.1545814
137	0x3deed6b0	0.11662042
138	0x3dec9c18	0.1155321
139	0x3e37c3b3	0.17945747
140	0xbe4c693e	-0.19962022
141	0xbd325f5c	-0.043547973
142	0x3e1276f3	0.14303188
143	0xbe4a897b	-0.19779007
144	0x3e2d60f8	0.16931522
145	0x3c64e78b	0.01397122
146	0x3e30fb97	0.17283474
147	0xbd5802f8	-0.052737206
148	0xbe813e1a	-0.25242692
149	0xbccd2bfb	-0.025045386
150	0x3c2c2355	0.010506471
151	0xbda69a75	-0.08134929
152	0xbbc2f0a7	-0.005949098
153	0x3da8c9e6	0.08241634
154	0xbe1cbad4	-0.15305644
155	0x3c30bb0c	0.010786783
156	0x3cbd5329	0.023110943
157	0xbc8ecfa4	-0.017432995
158	0xbe409203	-0.18805699
159	0x3c93fe82	0.018065695
160	0xbc81b25d	-0.01583212
161	0xbdad0889	-0.084488936
162	0xbe3bf53b	-0.18355267
163	0xbe370ea2	-0.17876676
164	0xbe158580	-0.14601707
165	0x3d336ecd	0.04380684
166	0x3e17348e	0.14766142
167	0x3cfb11c2	0.030648116
168	0xbe592f88	-0.21209538
169	0x3e1d62ab	0.1536967
170	0xbe0b9e94	-0.13634712
171	0xbcf4b193	-0.02986983
172	0x3ce322dc	0.027726583
173	0x3e45e273	0.19324665
174	0x3d85c4f2	0.06531705
175	0xbc86daeb	-0.01646181
176	0xbdc55d97	-0.096369915
177	0xbd9d70ef	-0.07687556
178	0xbc0f840f	-0.008759513
179	0x3d424302	0.047427185
180	0xbd042bf5	-0.032268483
181	0x3e386f4c	0.18011206
182	0x3ce14e57	0.027503176
183	0x3bf71f77	0.0075415927
184	0xbc8bb66d	-0.01705476
185	0xbe004acc	-0.12528533
186	0xbdd23bde	-0.10265325
187	0xbcf70eed	-0.030158484
188	0x3e1cc451	0.15309264
189	0x3e20f797	0.15719448
190	0xbe3d3b97	-0.18479763
191	0x3cb52ff0	0.022117585
192	0x3cc8ce54	0.024512447
193	0xbdcf3d7b	-0.10119148
194	0xbe68838f	-0.22706436
195	0x3dd84b42	0.10561229
196	0x3d292a09	0.041299853
197	0xbb410cc8	-0.002945708
198	0x3d24ca61	0.040232066
199	0xbe612289	-0.2198583

Parameter4927 f4 [1, 800]
0	0x3e0df7a9	0.13864006
1	0xbd943df5	-0.0723838
2	0x3cb88176	0.02252267
3	0x3c46f329	0.012142935
4	0x3bfbb1c2	0.0076811025
5	0xbd733156	-0.059373222
6	0xbca3fd36	-0.020018201
7	0xbd13fa5e	-0.03612744
8	0x3d5347c1	0.0515821
9	0xbcf2b815	-0.029628793
10	0x3d3cf27d	0.046129692
11	0x3d9f9763	0.077925466
12	0xbd96b816	-0.0735933
13	0xbd89a106	-0.06720166
14	0x3d7c1eb8	0.061552733
15	0x3bd49aa8	0.006488163
16	0xbdc0fcc2	-0.0942321
17	0x3a775e9c	0.00094364
18	0xbc5f7287	-0.013638145
19	0xbd8799ba	-0.06621118
20	0xbd3d3e63	-0.046202075
21	0xbd89f1da	-0.06735583
22	0xbd9ca15f	-0.076479666
23	0xbdf17869	-0.117905445
24	0x3d05125b	0.03248821
25	0x3e00f079	0.12591733
26	0xbc5a404d	-0.013320995
27	0xbc0c046a	-0.008545974
28	0xbc0c67b1	-0.008569644
29	0x3c9b5097	0.018959327
30	0x3c27979f	0.01022902
31	0xbcafdfd8	-0.021469042
32	0x3bffa35f	0.007801458
33	0xbd56ae07	-0.05241206
34	0x3d2ac6c1	0.041693453
35	0xbc527ca6	-0.012847101
36	0xbd7134e4	-0.05888833
37	0x3e215bc3	0.1575766
38	0x3bd4ff92	0.006500193
39	0x3d939332	0.0720581
40	0x3da0ea34	0.07857171
41	0xbdd23aea	-0.10265143
42	0x3c3caa80	0.01151526
43	0xbcb926ed	-0.02260157
44	0xbca334d9	-0.01992266
45	0xbc91c1be	-0.017792579
46	0xbd0c6221	-0.03427327
47	0xbced5f36	-0.028976064
48	0xbd5f0d39	-0.05445597
49	0xbd3d199a	-0.046166994
50	0x3d43a3d6	0.047763668
51	0x3da374ec	0.079812855
52	0xbe12cad0	-0.1433518
53	0xbd81db89	-0.06340701
54	0xbd54d47e	-0.05196046
55	0xbd10c714	-0.035346106
56	0x3e5a1834	0.21298295
57	0xbcbb32af	-0.022851316
58	0xbd76d73c	-0.060263857
59	0xbd6cb6a2	-0.05779136
60	0x3c7ccc7b	0.015429611
61	0xbd3a1a3c	-0.045435175
62	0xbdcd4a5d	-0.10023949
63	0xbd6b08c2	-0.0573814
64	0xbc8858fe	-0.016643997
65	0xbdde14f9	-0.10843844
66	0x3cf1c122	0.029511038
67	0xbd0957ec	-0.033531114
68	0xbd19ddc2	-0.037565
69	0xbd94c733	-0.07264557
70	0xbd3904c3	-0.045170557
71	0xbdb8d11f	-0.09024262
72	0xbd9bc00a	-0.07604988
73	0x3d3a9827	0.04555526
74	0xbbdfef87	-0.006833974
75	0xbd11bcf1	-0.03558058
76	0xbd341228	-0.043962628
77	0x3acab8ac	0.0015466413
78	0x3d6d2ca4	0.0579039
79	0xbbf9e692	-0.007626363
80	0xbd38544c	-0.045002267
81	0xbdabec81	-0.08394719
82	0x3d2f0a7c	0.042734608
83	0xbe1222f5	-0.14271148
84	0xbd136345	-0.035983343
85	0xbd30255d	-0.043004382
86	0x3cc419de	0.023938116
87	0xbc64deca	-0.013969133
88	0xbc5f0b2b	-0.0136135025
89	0xbd1d7e5c	-0.038450584
90	0xbd2fba10	-0.042902052
91	0x3d63dda5	0.0556313
92	0xbd159b9c	-0.036525354
93	0xbd43091e	-0.047616117
94	0xbd43d5f1	-0.047811452
95	0xbda3c8b0	-0.079972625
96	0xbce0d9a7	-0.027447535
97	0xbd0f2f95	-0.034957487
98	0xbd202d42	-0.03910566
99	0xbd04ca92	-0.03241975
100	0x3d26c22b	0.040712517
101	0xbd8f382f	-0.06993138
102	0x3d019980	0.03164053
103	0xbbb3a82f	-0.0054826955
104	0xbb82edbe	-0.0039956262
105	0xbd89fca2	-0.06737639
106	0xbc3db7d0	-0.011579469
107	0xbd1e8283	-0.038698684
108	0x3d708467	0.05872002
109	0xbceac199	-0.028656768
110	0x3d5c9de0	0.0538615
111	0x3d595ce9	0.05306712
112	0xbd9d45a1	-0.07679296
113	0xbd8f5ff6	-0.07000725
114	0x3d5683c3	0.05237175
115	0xbbda77be	-0.0066671064
116	0xbdb4745b	-0.088112555
117	0xbc3a75c9	-0.011380621
118	0xbc1cc35b	-0.009568061
119	0xbd8691e1	-0.06570793
120	0xbd3068d4	-0.043068722
121	0xbd87af58	-0.06625241
122	0xbda59295	-0.08084599
123	0xbdf4b967	-0.11949425
124	0x3cfdd6ce	0.030986216
125	0x3db8c8b1	0.09022654
126	0xbca6593c	-0.020306222
127	0xbc9f0175	-0.019409874
128	0xbcb83ff8	-0.02249144
129	0x3ca7c6ef	0.020480601
130	0xbc87804b	-0.016540667
131	0xbc051dfc	-0.008124825
132	0x3bb36045	0.0054741227
133	0xbd7ac7be	-0.061225645
134	0x3d02065b	0.031744342
135	0xbd00d444	-0.031452432
136	0xbd7d7530	-0.061879337
137	0x3dd2e981	0.102984436
138	0xbc9df638	-0.019282445
139	0x3d87737d	0.066138245
140	0x3d1bd1ec	0.038041994
141	0xbde7635e	-0.1129825
142	0x3c5be264	0.013420675
143	0xbcfa53c4	-0.03055752
144	0xbcb91769	-0.02259417
145	0xbccd6d63	-0.025076574
146	0xbce08f19	-0.027411984
147	0xbd023e24	-0.031797543
148	0xbd719bd6	-0.058986507
149	0xbd3bc83a	-0.045845248
150	0x3d66b607	0.05632594
151	0x3d9f15c4	0.07767823
152	0xbe096baf	-0.13419984
153	0xbd7926a9	-0.060827885
154	0xbd45f72f	-0.048331436
155	0xbb461420	-0.0030224398
156	0x3dec29f4	0.115314394
157	0xbcf43db9	-0.029814588
158	0xbd831f8b	-0.06402501
159	0xbd650a25	-0.055917878
160	0xba7b19d1	-0.0009578737
161	0xbd4661a7	-0.048432972
162	0xbdcc8f14	-0.099882275
163	0xbd2a8d0b	-0.041638415
164	0xbcb6a624	-0.022296019
165	0xbddf6e7f	-0.10909747
166	0xba96cedb	-0.001150574
167	0xbce91f5f	-0.028457342
168	0xbcda5220	-0.026650488
169	0xbd995bda	-0.074882224
170	0xbd3fa66e	-0.04678958
171	0xbdbf0c66	-0.09328537
172	0xbd610ca4	-0.054943696
173	0x3d3bef5f	0.04588258
174	0xbc9d8dc5	-0.01923264
175	0xbd22eb99	-0.039775465
176	0xbd1f659f	-0.038915273
177	0x3b7be10e	0.0038433704
178	0x3d45a389	0.048251662
179	0xbcc1824a	-0.023621697
180	0xbd42d48e	-0.04756599
181	0xbd79527c	-0.06086968
182	0x3ca2a24b	0.019852778
183	0xbe0628d8	-0.13101518
184	0xbd0a37bf	-0.03374457
185	0xbd1d16db	-0.038351875
186	0x3d5b3f0f	0.053526934
187	0xbc8ae667	-0.016955568
188	0xbc8283b0	-0.015931934
189	0xbd2bf8e3	-0.041985404
190	0xbce9052f	-0.028444855
191	0x3d2d82b4	0.042360976
192	0xbd33c7f4	-0.043891862
193	0xbd52bf64	-0.051452056
194	0xbd703e4c	-0.05865316
195	0xbda5dc55	-0.080986656
196	0xbd1299db	-0.03579126
197	0xbd1e8983	-0.03870536
198	0xbd1d975f	-0.038474437
199	0xbd1b61af	-0.037934955
200	0x3d2811fa	0.04103277
201	0xbd3c5df1	-0.045988027
202	0x3c42fd79	0.011901253
203	0x3c7d6cf1	0.015467868
204	0xbb85e696	-0.004086326
205	0xbd4d299f	-0.05008852
206	0xbc3d496a	-0.011553148
207	0xbcd12126	-0.025528502
208	0x3d65eca6	0.05613389
209	0xbd6d3e83	-0.057920944
210	0xbdd36f2a	-0.10323937
211	0x3d8daa9d	0.069173075
212	0xbd7f87dc	-0.062385425
213	0xbc477138	-0.01217299
214	0xbcfe6550	-0.031054169
215	0xbc14b845	-0.009077136
216	0xbd83a383	-0.06427672
217	0x3c695c40	0.0142431855
218	0xbc70a020	-0.014686614
219	0xbd47e303	-0.04880048
220	0xbd03da8c	-0.032190844
221	0xbcf26117	-0.029587312
222	0xbd1439bf	-0.036187883
223	0xbd93160c	-0.071819395
224	0xbc08a329	-0.008339682
225	0xbcdec42e	-0.027193155
226	0xbbafc0b2	-0.0053635472
227	0x3b51e1a5	0.0032025364
228	0xba63ecc1	-0.0008694642
229	0x3cff5835	0.03116999
230	0xbd22d34a	-0.039752282
231	0xbca590d8	-0.020210668
232	0xbc637c76	-0.013884654
233	0xbd47188d	-0.048607398
234	0xbdce9ed9	-0.100888915
235	0xbd63b924	-0.055596486
236	0xbd99c1b3	-0.07507648
237	0x3dce65c7	0.10078006
238	0xbcd2cd39	-0.025732623
239	0xbdba1b8e	-0.09087287
240	0x3db923b9	0.09040017
241	0xbdadc70c	-0.08485231
242	0xbd1941c7	-0.037416246
243	0xbc59edab	-0.013301293
244	0x3a00d418	0.0004914417
245	0xbc1d7f7a	-0.009612912
246	0xbc549adf	-0.012976377
247	0xbc87f566	-0.016596507
248	0xbc9c85b7	-0.019106729
249	0xbc153c8b	-0.009108673
250	0xbc87bf70	-0.016570777
251	0xbe2ac265	-0.16675718
252	0xbdba831e	-0.0910704
253	0xbc82c3c2	-0.015962485
254	0xbd0dac92	-0.034588404
255	0x3abae5b8	0.0014259135

Block7191_Output_0_initial_h f4 [1, 1, 100]
0	0x3dcccccd	0.1
1	0x3dcccccd	0.1
2	0x3dcccccd	0.1
3	0x3dcccccd	0.1
4	0x3dcccccd	0.1
5	0x3dcccccd	0.1
6	0x3dcccccd	0.1
7	0x3dcccccd	0.1
8	0x3dcccccd	0.1
9	0x3dcccccd	0.1
10	0x3dcccccd	0.1
11	0x3dcccccd	0.1
12	0x3dcccccd	0.1
13	0x3dcccccd	0.1
14	0x3dcccccd	0.1
15	0x3dcccccd	0.1
16	0x3dcccccd	0.1
17	0x3dcccccd	0.1
18	0x3dcccccd	0.1
19	0x3dcccccd	0.1
20	0x3dcccccd	0.1
21	0x3dcccccd	0.1
22	0x3dcccccd	0.1
23	0x3dcccccd	0.1
24	0x3dcccccd	0.1
25	0x3dcccccd	0.1
26	0x3dcccccd	0.1
27	0x3dcccccd	0.1
28	0x3dcccccd	0.1
29	0x3dcccccd	0.1
30	0x3dcccccd	0.1
31	0x3dcccccd	0.1
32	0x3dcccccd	0.1
33	0x3dcccccd	0.1
34	0x3dcccccd	0.1
35	0x3dcccccd	0.1
36	0x3dcccccd	0.1
37	0x3dcccccd	0.1
38	0x3dcccccd	0.1
39	0x3dcccccd	0.1
40	0x3dcccccd	0.1
41	0x3dcccccd	0.1
42	0x3dcccccd	0.1
43	0x3dcccccd	0.1
44	0x3dcccccd	0.1
45	0x3dcccccd	0.1
46	0x3dcccccd	0.1
47	0x3dcccccd	0.1
48	0x3dcccccd	0.1
49	0x3dcccccd	0.1
50	0x3dcccccd	0.1
51	0x3dcccccd	0.1
52	0x3dcccccd	0.1
53	0x3dcccccd	0.1
54	0x3dcccccd	0.1
55	0x3dcccccd	0.1
56	0x3dcccccd	0.1
57	0x3dcccccd	0.1
58	0x3dcccccd	0.1
59	0x3dcccccd	0.1
60	0x3dcccccd	0.1
61	0x3dcccccd	0.1
62	0x3dcccccd	0.1
63	0x3dcccccd	0.1
64	0x3dcccccd	0.1
65	0x3dcccccd	0.1
66	0x3dcccccd	0.1
67	0x3dcccccd	0.1
68	0x3dcccccd	0.1
69	0x3dcccccd	0.1
70	0x3dcccccd	0.1
71	0x3dcccccd	0.1
72	0x3dcccccd	0.1
73	0x3dcccccd	0.1
74	0x3dcccccd	0.1
75	0x3dcccccd	0.1
76	0x3dcccccd	0.1
77	0x3dcccccd	0.1
78	0x3dcccccd	0.1
79	0x3dcccccd	0.1
80	0x3dcccccd	0.1
81	0x3dcccccd	0.1
82	0x3dcccccd	0.1
83	0x3dcccccd	0.1
84	0x3dcccccd	0.1
85	0x3dcccccd	0.1
86	0x3dcccccd	0.1
87	0x3dcccccd	0.1
88	0x3dcccccd	0.1
89	0x3dcccccd	0.1
90	0x3dcccccd	0.1
91	0x3dcccccd	0.1
92	0x3dcccccd	0.1
93	0x3dcccccd	0.1
94	0x3dcccccd	0.1
95	0x3dcccccd	0.1
96	0x3dcccccd	0.1
97	0x3dcccccd	0.1
98	0x3dcccccd	0.1
99	0x3dcccccd	0.1

Block7191_Output_1_initial_c f4 [1, 1, 100]
0	0x3dcccccd	0.1
1	0x3dcccccd	0.1
2	0x3dcccccd	0.1
3	0x3dcccccd	0.1
4	0x3dcccccd	0.1
5	0x3dcccccd	0.1
6	0x3dcccccd	0.1
7	0x3dcccccd	0.1
8	0x3dcccccd	0.1
9	0x3dcccccd	0.1
10	0x3dcccccd	0.1
11	0x3dcccccd	0.1
12	0x3dcccccd	0.1
13	0x3dcccccd	0.1
14	0x3dcccccd	0.1
15	0x3dcccccd	0.1
16	0x3dcccccd	0.1
17	0x3dcccccd	0.1
18	0x3dcccccd	0.1
19	0x3dcccccd	0.1
20	0x3dcccccd	0.1
21	0x3dcccccd	0.1
22	0x3dcccccd	0.1
23	0x3dcccccd	0.1
24	0x3dcccccd	0.1
25	0x3dcccccd	0.1
26	0x3dcccccd	0.1
27	0x3dcccccd	0.1
28	0x3dcccccd	0.1
29	0x3dcccccd	0.1
30	0x3dcccccd	0.1
31	0x3dcccccd	0.1
32	0x3dcccccd	0.1
33	0x3dcccccd	0.1
34	0x3dcccccd	0.1
35	0x3dcccccd	0.1
36	0x3dcccccd	0.1
37	0x3dcccccd	0.1
38	0x3dcccccd	0.1
39	0x3dcccccd	0.1
40	0x3dcccccd	0.1
41	0x3dcccccd	0.1
42	0x3dcccccd	0.1
43	0x3dcccccd	0.1
44	0x3dcccccd	0.1
45	0x3dcccccd	0.1
46	0x3dcccccd	0.1
47	0x3dcccccd	0.1
48	0x3dcccccd	0.1
49	0x3dcccccd	0.1
50	0x3dcccccd	0.1
51	0x3dcccccd	0.1
52	0x3dcccccd	0.1
53	0x3dcccccd	0.1
54	0x3dcccccd	0.1
55	0x3dcccccd	0.1
56	0x3dcccccd	0.1
57	0x3dcccccd	0.1
58	0x3dcccccd	0.1
59	0x3dcccccd	0.1
60	0x3dcccccd	0.1
61	0x3dcccccd	0.1
62	0x3dcccccd	0.1
63	0x3dcccccd	0.1
64	0x3dcccccd	0.1
65	0x3dcccccd	0.1
66	0x3dcccccd	0.1
67	0x3dcccccd	0.1
68	0x3dcccccd	0.1
69	0x3dcccccd	0.1
70	0x3dcccccd	0.1
71	0x3dcccccd	0.1
72	0x3dcccccd	0.1
73	0x3dcccccd	0.1
74	0x3dcccccd	0.1
75	0x3dcccccd	0.1
76	0x3dcccccd	0.1
77	0x3dcccccd	0.1
78	0x3dcccccd	0.1
79	0x3dcccccd	0.1
80	0x3dcccccd	0.1
81	0x3dcccccd	0.1
82	0x3dcccccd	0.1
83	0x3dcccccd	0.1
84	0x3dcccccd	0.1
85	0x3dcccccd	0.1
86	0x3dcccccd	0.1
87	0x3dcccccd	0.1
88	0x3dcccccd	0.1
89	0x3dcccccd	0.1
90	0x3dcccccd	0.1
91	0x3dcccccd	0.1
92	0x3dcccccd	0.1
93	0x3dcccccd	0.1
94	0x3dcccccd	0.1
95	0x3dcccccd	0.1
96	0x3dcccccd	0.1
97	0x3dcccccd	0.1
98	0x3dcccccd	0.1
99	0x3dcccccd	0.1

Parameter3761 f4 [1, 800]
0	0xbcd752a4	-0.026284523
1	0xbbca8ee3	-0.006181584
2	0xbd1d8086	-0.038452648
3	0x3bd02f58	0.0063533
4	0xbd359165	-0.044328112
5	0x3d837a98	0.06419867
6	0xbd096681	-0.03354502
7	0x3d0f7da0	0.035031915
8	0xbd724b95	-0.059154112
9	0x3d18fc64	0.037350073
10	0xbc6bcf65	-0.014392708
11	0x3ad4798c	0.001621054
12	0xbd468667	-0.04846802
13	0xbd2caec3	-0.042158853
14	0xbda95f44	-0.082701236
15	0xbd88b213	-0.0667459
16	0xbd3bd56d	-0.045857836
17	0xbc126164	-0.008934353
18	0xbcf84ff8	-0.03031157
19	0xbb32d3ec	-0.002728696
20	0x3d8c1c09	0.06841285
21	0xbcd15a6a	-0.025555808
22	0x3d123d9a	0.03570328
23	0x3cbb6588	0.022875562
24	0xbd23178e	-0.039817385
25	0x3d3d0fce	0.04615765
26	0xbade2002	-0.0016946795
27	0xbd00d124	-0.031449452
28	0xbda32ac0	-0.07967138
29	0xbd7eb98a	-0.062188663
30	0xbb3171ee	-0.0027075964
31	0x3bff575c	0.0077923965
32	0x39a4fa50	0.00031467015
33	0x3b81dd4f	0.0039631496
34	0xbd9aa636	-0.075512335
35	0xbdaf9392	-0.08573069
36	0xbb3b678d	-0.0028595657
37	0x3c20b978	0.009809844
38	0x3d0681e1	0.032838706
39	0xbce1581f	-0.02750784
40	0xbd67995d	-0.056542743
41	0xbd356843	-0.044288885
42	0xbdf871c5	-0.12131075
43	0x3c554a32	0.013018178
44	0xbd916fb1	-0.071013816
45	0x3c97f170	0.018547744
46	0x3d0edd87	0.034879234
47	0x3d828113	0.06372275
48	0x3d2e2fa1	0.04252589
49	0xbbb90531	-0.005646371
50	0xbd89f6bb	-0.06736513
51	0xbda36a44	-0.07979253
52	0xbd0ac823	-0.03388227
53	0xbc316a0f	-0.010828509
54	0xbda07d7a	-0.07836433
55	0x3cf4d6c2	0.02988756
56	0x3d039ca7	0.032131817
57	0xb99ca2c6	-0.00029875914
58	0xbd7b6305	-0.06137373
59	0xbd9c4e6e	-0.07632147
60	0xbd3bda54	-0.04586251
61	0xbc1d9cf3	-0.009619939
62	0x3d57f914	0.052727774
63	0x3c25f1c1	0.010128439
64	0xbd7ecbc8	-0.06220606
65	0xbcbd6763	-0.023120588
66	0x3c5c8f77	0.013461939
67	0xbcddae1a	-0.027060557
68	0xbd5ebf61	-0.054381732
69	0x3cc17b04	0.023618229
70	0x3d3b0d35	0.045666892
71	0xbb0a8c70	-0.0021140836
72	0xbd7929d7	-0.060830917
73	0xbd520bb6	-0.0512807
74	0xbc06ad93	-0.008220094
75	0x3c8dac6c	0.017294131
76	0xbd9c2852	-0.07624878
77	0xbd56fc5d	-0.052486766
78	0xbdd2cd41	-0.10293055
79	0x3d32b62a	0.043630756
80	0xbd18b6f6	-0.03728386
81	0xbd36374f	-0.04448634
82	0xbd33490b	-0.04377083
83	0x3dbbc10f	0.091676824
84	0x3d1462ff	0.036227223
85	0x3a97ad02	0.0011571946
86	0xbbd0889e	-0.0063639423
87	0xbbb10337	-0.0054019946
88	0xbd14d865	-0.036339182
89	0xbcef9be0	-0.029249132
90	0xbcf33bc8	-0.029691592
91	0x3db5d154	0.08877817
92	0x3ce5e49d	0.028063113
93	0xbd83c421	-0.06433893
94	0x3c31c051	0.010849074
95	0x3bc7cc3f	0.006097346
96	0xbd5eb9c4	-0.05437638
97	0xbce53ca8	-0.027983025
98	0xbd35891d	-0.044320215
99	0xbc9abe68	-0.01888962
100	0xbd0f1c8a	-0.034939326
101	0xbc32b2f8	-0.010906927
102	0xbd1125eb	-0.035436552
103	0x3af35db9	0.001856736
104	0xbd21ca08	-0.039499313
105	0x3d7a5064	0.061111823
106	0xbd1d73a1	-0.03844035
107	0x3d7f66ad	0.06235378
108	0xbd598a1c	-0.053110227
109	0x3d051587	0.032491233
110	0xbb87117e	-0.0041219583
111	0xbb8216f2	-0.0039700205
112	0xbd1437a8	-0.03618589
113	0xbd1ad44d	-0.037800122
114	0xbda545a7	-0.08069926
115	0xbd80c606	-0.0628777
116	0xbd378333	-0.044802856
117	0x3b105b97	0.0022027248
118	0xbbfa3c02	-0.007636548
119	0x3c21bff9	0.00987243
120	0x3d9360c4	0.07196191
121	0xbd010042	-0.031494386
122	0x3d1fe954	0.03904088
123	0x3cde3d75	0.027128914
124	0xbd33d1e3	-0.043901335
125	0x3d563671	0.052298013
126	0xbae78a89	-0.0017665188
127	0xbd080784	-0.033210292
128	0xbd90ee40	-0.070766926
129	0xbd6d8821	-0.05799115
130	0x3b93bf77	0.0045089084
131	0x3c84ba60	0.016202152
132	0x3b0ca506	0.0021460666
133	0x3afac290	0.001913147
134	0xbd817d89	-0.06322772
135	0xbda9ef97	-0.08297651
136	0xbb46e474	-0.003034857
137	0x3c83f7bb	0.016109338
138	0x3d23aec2	0.039961584
139	0xbcd60dce	-0.02612963
140	0xbd6a94f3	-0.057270955
141	0xbce11bc2	-0.027479056
142	0xbdf9990b	-0.12187394
143	0x3c94c0f7	0.018158419
144	0xbd7d5524	-0.061848775
145	0x3d10f5f7	0.03539082
146	0x3d48a580	0.048985958
147	0x3da5c2d1	0.08093799
148	0x3d88c30c	0.06677827
149	0xbbdae71c	-0.0066803824
150	0xbd74f099	-0.059799764
151	0xbd8f992e	-0.070116386
152	0xbd106932	-0.035256572
153	0xbc5adebc	-0.013358768
154	0xbd8bdeef	-0.068296306
155	0x3cfba694	0.03071908
156	0x3d158ce1	0.036511306
157	0x3c298755	0.010347207
158	0xbd672266	-0.05642929
159	0xbd957517	-0.07297724
160	0xbd691ce0	-0.056912303
161	0x3d1164c7	0.0354965
162	0x3d67e40e	0.056613974
163	0x3c9cfced	0.019163573
164	0xbd4fd4ba	-0.05073998
165	0xbb48db6b	-0.0030648361
166	0x3c85e513	0.016344583
167	0xbc3001d5	-0.010742624
168	0xbcdd1a05	-0.026989946
169	0x3d05e15e	0.03268563
170	0x3d3a86df	0.04553878
171	0xba0ae2fd	-0.0005298106
172	0xbd388736	-0.045050822
173	0xbd5f17a3	-0.0544659
174	0x3b5146f0	0.0031933151
175	0x3d1fcab3	0.03901167
176	0xbda7ca7f	-0.0819292
177	0xbd5d7c4e	-0.054073624
178	0xbdcd0bd1	-0.100120194
179	0x3d061958	0.032739013
180	0xbd2252cf	-0.039629754
181	0xbd39e2a0	-0.045382142
182	0xbcb5c5aa	-0.02218898
183	0x3db20731	0.08692778
184	0x3d28fef0	0.041258752
185	0xba9f6374	-0.0012160377
186	0xb9e7a8b1	-0.00044185438
187	0xbc24ed40	-0.01006633
188	0xbcaab07a	-0.020836104
189	0xbd112d28	-0.035443455
190	0xbcd9f56b	-0.026606282
191	0x3dc6e066	0.09710769
192	0x3d1315df	0.03590953
193	0xbd56bea3	-0.0524279
194	0x3cee1aee	0.029065575
195	0x3c30af02	0.010783913
196	0xbd4e1377	-0.050311532
197	0xbcc4dbee	-0.024030652
198	0xbd452e5a	-0.048139907
199	0xbcf880ac	-0.030334793
200	0x3c453841	0.012037338
201	0x3d216172	0.03939957
202	0x3cbacc0c	0.022802375
203	0x3d697daa	0.05700461
204	0xb9a4661d	-0.00031356598
205	0x3e01132f	0.12604974
206	0x3d01b362	0.031665213
207	0x3de7e58f	0.11323082
208	0xbc249dae	-0.010047359
209	0x3dab385c	0.08360359
210	0x3d8fda2c	0.07024035
211	0x3d53db6a	0.05172292
212	0x3bb673fe	0.0055680266
213	0xbd095734	-0.03353043
214	0xbc8b1dbf	-0.016981957
215	0xbc79e821	-0.015253098
216	0x3c4c783d	0.012479839
217	0x3d584f99	0.052810285
218	0x3c2886c8	0.010286041
219	0x3dce9489	0.100869246
220	0x3d9fff9f	0.07812428
221	0x3d341807	0.043968227
222	0x3da13839	0.07872052
223	0x3dcae7c9	0.09907491
224	0xbcbe376c	-0.023219787
225	0x3e0240d4	0.12720042
226	0x3c9a5e57	0.018843813
227	0x3c6e0dc9	0.014529654
228	0x3998a0a3	0.00029111383
229	0x3b4e74c3	0.00315027
230	0x3d895d18	0.06707209
231	0x3c82a1d2	0.015946303
232	0x3d63856a	0.055547155
233	0x3d76fa98	0.06029758
234	0x3b8d8ff2	0.004320138
235	0xbcfa26c9	-0.030536072
236	0x3d5e6f08	0.054305106
237	0x3cd5d900	0.02610445
238	0x3dc38ae6	0.09547977
239	0x3d2219d4	0.039575413
240	0x3c5dad18	0.013530038
241	0x3d60475a	0.054755546
242	0xbd856d90	-0.06515038
243	0x3daab896	0.08335988
244	0x3c7f189b	0.015569831
245	0xbc303c0c	-0.010756504
246	0x3d5d466e	0.054022245
247	0x3dd1df4c	0.102476686
248	0x3e0df88a	0.13864341
249	0x3ce6da72	0.028180335
250	0x3c0412ba	0.008061105
251	0xbb64328f	-0.0034820174
252	0xbbcf9ccf	-0.0063358317
253	0x3cd6902c	0.026191793
254	0xbbd81b84	-0.006595077
255	0x3d8c1d36	0.06841509

Block7019_Output_0_initial_h f4 [1, 1, 100]
0	0x3dcccccd	0.1
1	0x3dcccccd	0.1
2	0x3dcccccd	0.1
3	0x3dcccccd	0.1
4	0x3dcccccd	0.1
5	0x3dcccccd	0.1
6	0x3dcccccd	0.1
7	0x3dcccccd	0.1
8	0x3dcccccd	0.1
9	0x3dcccccd	0.1
10	0x3dcccccd	0.1
11	0x3dcccccd	0.1
12	0x3dcccccd	0.1
13	0x3dcccccd	0.1
14	0x3dcccccd	0.1
15	0x3dcccccd	0.1
16	0x3dcccccd	0.1
17	0x3dcccccd	0.1
18	0x3dcccccd	0.1
19	0x3dcccccd	0.1
20	0x3dcccccd	0.1
21	0x3dcccccd	0.1
22	0x3dcccccd	0.1
23	0x3dcccccd	0.1
24	0x3dcccccd	0.1
25	0x3dcccccd	0.1
26	0x3dcccccd	0.1
27	0x3dcccccd	0.1
28	0x3dcccccd	0.1
29	0x3dcccccd	0.1
30	0x3dcccccd	0.1
31	0x3dcccccd	0.1
32	0x3dcccccd	0.1
33	0x3dcccccd	0.1
34	0x3dcccccd	0.1
35	0x3dcccccd	0.1
36	0x3dcccccd	0.1
37	0x3dcccccd	0.1
38	0x3dcccccd	0.1
39	0x3dcccccd	0.1
40	0x3dcccccd	0.1
41	0x3dcccccd	0.1
42	0x3dcccccd	0.1
43	0x3dcccccd	0.1
44	0x3dcccccd	0.1
45	0x3dcccccd	0.1
46	0x3dcccccd	0.1
47	0x3dcccccd	0.1
48	0x3dcccccd	0.1
49	0x3dcccccd	0.1
50	0x3dcccccd	0.1
51	0x3dcccccd	0.1
52	0x3dcccccd	0.1
53	0x3dcccccd	0.1
54	0x3dcccccd	0.1
55	0x3dcccccd	0.1
56	0x3dcccccd	0.1
57	0x3dcccccd	0.1
58	0x3dcccccd	0.1
59	0x3dcccccd	0.1
60	0x3dcccccd	0.1
61	0x3dcccccd	0.1
62	0x3dcccccd	0.1
63	0x3dcccccd	0.1
64	0x3dcccccd	0.1
65	0x3dcccccd	0.1
66	0x3dcccccd	0.1
67	0x3dcccccd	0.1
68	0x3dcccccd	0.1
69	0x3dcccccd	0.1
70	0x3dcccccd	0.1
71	0x3dcccccd	0.1
72	0x3dcccccd	0.1
73	0x3dcccccd	0.1
74	0x3dcccccd	0.1
75	0x3dcccccd	0.1
76	0x3dcccccd	0.1
77	0x3dcccccd	0.1
78	0x3dcccccd	0.1
79	0x3dcccccd	0.1
80	0x3dcccccd	0.1
81	0x3dcccccd	0.1
82	0x3dcccccd	0.1
83	0x3dcccccd	0.1
84	0x3dcccccd	0.1
85	0x3dcccccd	0.1
86	0x3dcccccd	0.1
87	0x3dcccccd	0.1
88	0x3dcccccd	0.1
89	0x3dcccccd	0.1
90	0x3dcccccd	0.1
91	0x3dcccccd	0.1
92	0x3dcccccd	0.1
93	0x3dcccccd	0.1
94	0x3dcccccd	0.1
95	0x3dcccccd	0.1
96	0x3dcccccd	0.1
97	0x3dcccccd	0.1
98	0x3dcccccd	0.1
99	0x3dcccccd	0.1

Block7019_Output_1_initial_c f4 [1, 1, 100]
0	0x3dcccccd	0.1
1	0x3dcccccd	0.1
2	0x3dcccccd	0.1
3	0x3dcccccd	0.1
4	0x3dcccccd	0.1
5	0x3dcccccd	0.1
6	0x3dcccccd	0.1
7	0x3dcccccd	0.1
8	0x3dcccccd	0.1
9	0x3dcccccd	0.1
10	0x3dcccccd	0.1
11	0x3dcccccd	0.1
12	0x3dcccccd	0.1
13	0x3dcccccd	0.1
14	0x3dcccccd	0.1
15	0x3dcccccd	0.1
16	0x3dcccccd	0.1
17	0x3dcccccd	0.1
18	0x3dcccccd	0.1
19	0x3dcccccd	0.1
20	0x3dcccccd	0.1
21	0x3dcccccd	0.1
22	0x3dcccccd	0.1
23	0x3dcccccd	0.1
24	0x3dcccccd	0.1
25	0x3dcccccd	0.1
26	0x3dcccccd	0.1
27	0x3dcccccd	0.1
28	0x3dcccccd	0.1
29	0x3dcccccd	0.1
30	0x3dcccccd	0.1
31	0x3dcccccd	0.1
32	0x3dcccccd	0.1
33	0x3dcccccd	0.1
34	0x3dcccccd	0.1
35	0x3dcccccd	0.1
36	0x3dcccccd	0.1
37	0x3dcccccd	0.1
38	0x3dcccccd	0.1
39	0x3dcccccd	0.1
40	0x3dcccccd	0.1
41	0x3dcccccd	0.1
42	0x3dcccccd	0.1
43	0x3dcccccd	0.1
44	0x3dcccccd	0.1
45	0x3dcccccd	0.1
46	0x3dcccccd	0.1
47	0x3dcccccd	0.1
48	0x3dcccccd	0.1
49	0x3dcccccd	0.1
50	0x3dcccccd	0.1
51	0x3dcccccd	0.1
52	0x3dcccccd	0.1
53	0x3dcccccd	0.1
54	0x3dcccccd	0.1
55	0x3dcccccd	0.1
56	0x3dcccccd	0.1
57	0x3dcccccd	0.1
58	0x3dcccccd	0.1
59	0x3dcccccd	0.1
60	0x3dcccccd	0.1
61	0x3dcccccd	0.1
62	0x3dcccccd	0.1
63	0x3dcccccd	0.1
64	0x3dcccccd	0.1
65	0x3dcccccd	0.1
66	0x3dcccccd	0.1
67	0x3dcccccd	0.1
68	0x3dcccccd	0.1
69	0x3dcccccd	0.1
70	0x3dcccccd	0.1
71	0x3dcccccd	0.1
72	0x3dcccccd	0.1
73	0x3dcccccd	0.1
74	0x3dcccccd	0.1
75	0x3dcccccd	0.1
76	0x3dcccccd	0.1
77	0x3dcccccd	0.1
78	0x3dcccccd	0.1
79	0x3dcccccd	0.1
80	0x3dcccccd	0.1
81	0x3dcccccd	0.1
82	0x3dcccccd	0.1
83	0x3dcccccd	0.1
84	0x3dcccccd	0.1
85	0x3dcccccd	0.1
86	0x3dcccccd	0.1
87	0x3dcccccd	0.1
88	0x3dcccccd	0.1
89	0x3dcccccd	0.1
90	0x3dcccccd	0.1
91	0x3dcccccd	0.1
92	0x3dcccccd	0.1
93	0x3dcccccd	0.1
94	0x3dcccccd	0.1
95	0x3dcccccd	0.1
96	0x3dcccccd	0.1
97	0x3dcccccd	0.1
98	0x3dcccccd	0.1
99	0x3dcccccd	0.1

E f4 [24, 24]
0	0xbe631b8c	-0.22178477
1	0xbe778c76	-0.24174675
2	0x3c3b83c4	0.01144499
3	0xbeae7980	-0.34077072
4	0xbd7a1a7b	-0.06106041
5	0x3e8e3f72	0.2778278
6	0xbd43a44a	-0.0477641
7	0xbe929f23	-0.28637037
8	0x3ccea52b	0.025225243
9	0x3db4726f	0.08810889
10	0xbe8f75c1	-0.28019527
11	0x3d94208d	0.07232771
12	0x3e0dbc0b	0.13841264
13	0xbdf38c5c	-0.11892006
14	0xbd0783e0	-0.03308475
15	0xbe2ca823	-0.16861014
16	0xbe241784	-0.16024595
17	0x3e3e1b5b	0.18565123
18	0xbcb9fceb	-0.022703608
19	0xbe40de52	-0.18834808
20	0xbe15597a	-0.14584914
21	0x3e02ba40	0.12766361
22	0xbb70cddd	-0.0036743798
23	0xbe29a38c	-0.16566294
24	0xbdf56246	-0.11981635
25	0xbe7fae3d	-0.2496881
26	0xbe704815	-0.23464997
27	0xbec8f153	-0.39246616
28	0x3e87c51e	0.26517576
29	0x3d72e43e	0.0592997
30	0x3e52ed4f	0.20598339
31	0xbd44da0b	-0.048059504
32	0x3e003c9b	0.12523119
33	0xbd15f685	-0.036612052
34	0xbe867e89	-0.26268414
35	0x3db955b2	0.09049548
36	0x3e2e1903	0.17001729
37	0xbd264b46	-0.04059913
38	0xbea5eb73	-0.32406196
39	0xbdefb623	-0.11704662
40	0x3e9bd23c	0.30433834
41	0xbd931e10	-0.07183468
42	0xbc8bb5a4	-0.017054386
43	0xbe9f5246	-0.31117457
44	0x3c1893a5	0.009312545
45	0x3e8bacd9	0.2728031
46	0x3d462d3a	0.048382975
47	0x3e8c0da2	0.2735415
48	0x3e2af2ce	0.16694185
49	0xbea84dc0	-0.3287182
50	0x3ecda024	0.4016124
51	0x3ce472ca	0.027886767
52	0x3be76e78	0.0070627294
53	0x3d48f975	0.049066026
54	0xbee4057c	-0.44535434
55	0x3d44d6be	0.048056357
56	0xbe7a917c	-0.2446956
57	0xbe91efea	-0.28503352
58	0xbe8fa08e	-0.2805218
59	0xbed6f5f4	-0.41984522
60	0xbeacff98	-0.33788753
61	0xbe6ccd72	-0.23125246
62	0xbea3fc62	-0.3202849
63	0xbe8c691f	-0.2742395
64	0x3e26541f	0.16243027
65	0x3dc484a7	0.09595614
66	0x3e512396	0.20423731
67	0xbefcd7b7	-0.49383327
68	0x3e91edf1	0.28501847
69	0x3dccb97c	0.09996316
70	0x3dfa6bdc	0.12227604
71	0x3ede02cb	0.43361506
72	0xbd114024	-0.03546156
73	0xbe24562f	-0.16048501
74	0x3cb1b4e7	0.021692706
75	0x3e8ece55	0.27891794
76	0x3e233257	0.15937172
77	0xbe11ed9c	-0.14250797
78	0xbd929448	-0.07157189
79	0x3e41bd52	0.18919876
80	0x3dfb34cd	0.1226593
81	0x3e59d7dc	0.2127375
82	0xbe1ddf6a	-0.15417257
83	0xbc0df695	-0.008664747
84	0x3df52765	0.119704045
85	0x3eda7b7a	0.4267233
86	0x3cc64eaa	0.024207432
87	0xbe22a209	-0.15882124
88	0xbeeae835	-0.45880285
89	0xbe13a189	-0.1441709
90	0xbdf91abe	-0.12163304
91	0xbd9f12c5	-0.07767252
92	0x3eafa241	0.34303477
93	0xbea1e8c9	-0.31622913
94	0xbead23a3	-0.3381625
95	0x3eac4977	0.336498
96	0xbcf994e4	-0.030466504
97	0x3e97d2c0	0.29652977
98	0x3e9983fb	0.29983506
99	0xbd21ae65	-0.039472956
100	0x3ddcc71d	0.10780165
101	0x3e8810b0	0.26575232
102	0x3dea606d	0.11444173
103	0xbe8ee615	-0.27909914
104	0x3e93087a	0.28717405
105	0xbe202526	-0.15639171
106	0x3e9c9930	0.30585623
107	0xbe9dada8	-0.30796552
108	0xbe18288e	-0.1485922
109	0xbb3a6f67	-0.0028447749
110	0x3e3efe04	0.18651587
111	0x3e0b27dd	0.13589425
112	0x3d82a648	0.06379372
113	0xbe9ceb23	-0.30648145
114	0xbea8120c	-0.3282627
115	0xbe69e59d	-0.22841497
116	0x3e36d4b4	0.17854577
117	0xbdff289e	-0.12458919
118	0x3ccd294e	0.02504411
119	0x3e00fe2e	0.12596962
120	0x3d9500f2	0.07275571
121	0xbe50a833	-0.20376663
122	0xbe1beb6d	-0.15226527
123	0x3dbafb0e	0.09129916
124	0x3e379b06	0.1793023
125	0xbea2115f	-0.31653878
126	0x3d82aa4f	0.0638014
127	0x3d13e1e8	0.036104113
128	0xbdc0e3a4	-0.09418419
129	0xbd41f259	-0.04735026
130	0xbb4b5b5a	-0.0031029792
131	0xbe0e7297	-0.139109
132	0xbbd19a12	-0.0063965404
133	0xbe3163ec	-0.17323273
134	0xbe2e5338	-0.17023933
135	0xbc95410b	-0.018219491
136	0xbeae0508	-0.33988214
137	0x3e72eada	0.23722401
138	0x3e510a81	0.20414163
139	0x3e644a18	0.2229389
140	0xbe8b0bd2	-0.27157456
141	0xbd6dd83d	-0.05806755
142	0x3e06e03a	0.13171473
143	0xbe8fca46	-0.2808401
144	0x3ea2b66c	0.31779802
145	0x3e1613b4	0.14655954
146	0x3e8622a3	0.261983
147	0xbd57da55	-0.052698452
148	0xbecd6c28	-0.4012158
149	0xbd88bd2d	-0.066767074
150	0x3dd3f21f	0.10348915
151	0xbe36af9f	-0.17840432
152	0xbd6e80bc	-0.05822824
153	0x3d04d805	0.032432575
154	0xbdf96af6	-0.12178604
155	0x3d806014	0.062683254
156	0x3dcddd4c	0.10051975
157	0xbd82e42c	-0.063911766
158	0xbe96cb82	-0.2945214
159	0x3cd8857c	0.026430838
160	0xbda5ca01	-0.0809517
161	0xbe3b5141	-0.18292715
162	0xbe42a93b	-0.19009869
163	0xbe3d4fec	-0.18487519
164	0xbea7cc4c	-0.32773054
165	0xbdf3167c	-0.11869523
166	0x3e9023b1	0.2815223
167	0xbd06913b	-0.032853346
168	0xbec66a63	-0.38753042
169	0x3e6f54c4	0.2337218
170	0xbe0219d0	-0.12705159
171	0xbe8fbb36	-0.28072518
172	0xbcbf3448	-0.02334036
173	0x3e3b29f9	0.1827773
174	0xbd9c5475	-0.076332964
175	0x3d453fbc	0.048156485
176	0x3c0b7f59	0.008514249
177	0xbe602ad9	-0.21891345
178	0xbd4d048c	-0.050053164
179	0x3cee60c6	0.02909888
180	0xbc97483a	-0.018467057
181	0x3eabd22f	0.33558795
182	0x3d7eb411	0.062183443
183	0x3df291a7	0.11844187
184	0xbe01577b	-0.12631027
185	0xbe01ff5f	-0.12695073
186	0xbe882dd5	-0.26597467
187	0xbd8c3398	-0.06845778
188	0x3ea79efa	0.32738477
189	0x3e892839	0.267885
190	0xbe512c2d	-0.20427008
191	0x3d44e392	0.04806859
192	0x3e4080e0	0.18799162
193	0xbe509e29	-0.20372833
194	0xbeabcffa	-0.3355711
195	0x3e19d0b8	0.15021026
196	0x3e2aa3d4	0.16664058
197	0xbc4c9c6b	-0.012488465
198	0xbc8d736b	-0.01726695
199	0xbea7df21	-0.3278742
200	0xbdba4f78	-0.09097189
201	0x3dc509e7	0.09621029
202	0xbe8107e1	-0.25201324
203	0x3e52c3ec	0.20582551
204	0xbec02ea9	-0.375356
205	0xbe974d6f	-0.29551265
206	0xbe43764e	-0.19088098
207	0x3ebb520b	0.3658603
208	0x3d6eb06d	0.05827372
209	0x3e619628	0.22029936
210	0x3ea92a51	0.33040097
211	0xbeb3cc56	-0.35116833
212	0x3d960145	0.07324461
213	0xbc8a6c65	-0.01689739
214	0x3cf29d4c	0.02961602
215	0x3e06ff69	0.13183369
216	0xbe46c835	-0.1941231
217	0x3d1dae39	0.03849623
218	0x3d839131	0.064241774
219	0xbe0dd9d4	-0.13852626
220	0xbd8e6bec	-0.06954178
221	0xbe964958	-0.29352832
222	0x3cc29f9b	0.023757746
223	0x3db18efe	0.08669852
224	0x3dbcbdaf	0.09215867
225	0xbd933851	-0.07188476
226	0x3d9d765a	0.076885894
227	0xbe0527e4	-0.13003498
228	0x3ea6bf05	0.3256761
229	0xbe246d1f	-0.16057251
230	0x3e390b40	0.18070698
231	0x3e050164	0.12988812
232	0x3e9c1f4f	0.30492637
233	0x3ea0c4b8	0.31400084
234	0x3e5644c3	0.20924668
235	0x3df1f55c	0.11814377
236	0xbdd80342	-0.105474964
237	0xbd3b0e55	-0.045667965
238	0xbdb84cac	-0.08998999
239	0x3d9cf475	0.07663814
240	0x3bccbae6	0.006247866
241	0x3ea61461	0.32437423
242	0x3b048c3c	0.0020225188
243	0xbcb930e1	-0.022606315
244	0xbe226be4	-0.1586147
245	0xbdb406e2	-0.08790375
246	0xbe7c401b	-0.2463383
247	0xbdd8af90	-0.10580361
248	0x3ebb63b0	0.36599493
249	0x3e76f860	0.24118185
250	0x3df94904	0.1217213
251	0xbdd3f1e2	-0.1034887
252	0xbe9991f8	-0.29994178
253	0xbe30e6d8	-0.1727556
254	0xbddc77a9	-0.10765011
255	0xbe65b03d	-0.22430511

Parameter4210 f4 [1, 800]
0	0xbd93f936	-0.072252676
1	0xbcf46153	-0.029831564
2	0xbc925527	-0.01786287
3	0xbc52fbaa	-0.012877384
4	0xbc897cd2	-0.016783152
5	0x3dc055f1	0.09391392
6	0xbd262fc5	-0.0405729
7	0x3d04a808	0.03238681
8	0xbd419c02	-0.04726792
9	0x3ae5518c	0.0017495616
10	0xbad22841	-0.0016033725
11	0xbd042114	-0.03225811
12	0xbcfe1d64	-0.031019874
13	0xbd13f2d6	-0.03612026
14	0xbc8734ce	-0.016504671
15	0x3ab3b11b	0.0013709398
16	0xbc88ff85	-0.016723404
17	0xbd042f9c	-0.032271966
18	0x3bac070a	0.0052498626
19	0x3d0a698d	0.033792067
20	0xbd80ec02	-0.06295015
21	0xbcfab6c9	-0.030604737
22	0xbd6a65e2	-0.05722607
23	0xbd2adc89	-0.041714225
24	0xbbd7b14c	-0.0065824147
25	0xbc0c791f	-0.008573799
26	0xbd4f15ac	-0.050557777
27	0xbcb35534	-0.021891214
28	0x3d39b722	0.045340665
29	0xbd0f309e	-0.034958474
30	0xbd1537d3	-0.03643019
31	0xbd895a05	-0.06706623
32	0x3bfc5b97	0.007701348
33	0x3c053540	0.008130372
34	0xbd3c6b7f	-0.046000954
35	0x3c49afac	0.01230995
36	0x3e13b21c	0.14423412
37	0xbc49f348	-0.012326069
38	0x3c86656f	0.01640579
39	0xbd9966c8	-0.07490307
40	0x3c0a74e8	0.008450724
41	0xbd551c39	-0.05202887
42	0xbc290833	-0.010316896
43	0xbd39b16e	-0.045335226
44	0xbd36d56d	-0.044637132
45	0x3d07ebd7	0.0331839
46	0xbd694085	-0.056946296
47	0xbc8b5abf	-0.017011045
48	0xbd465755	-0.04842313
49	0xbaf5e190	-0.001875924
50	0x3b565b96	0.0032708398
51	0xbcf7e2be	-0.030259486
52	0xbc9a9977	-0.018872006
53	0x3da521a8	0.0806306
54	0xbdae0a5c	-0.0849807
55	0xbd64c7fd	-0.055854786
56	0x3ac2cb2c	0.0014861575
57	0xbdc3bede	-0.095578894
58	0x3b796115	0.003805225
59	0x3d31fc55	0.043453533
60	0xbc973a37	-0.018460376
61	0xbdfd5013	-0.123687886
62	0x3d5b2310	0.053500235
63	0xbd342412	-0.04397971
64	0xbd837f93	-0.06420817
65	0xbd23c08a	-0.03997854
66	0xbcf17159	-0.029472994
67	0xbda17382	-0.078833595
68	0x3debd7a8	0.115157425
69	0x3b9ac127	0.0047227326
70	0x3ac90d72	0.001533909
71	0xbd41982a	-0.047264256
72	0xbcd6dcbb	-0.0262283
73	0x3c4c1edd	0.01245853
74	0xbcb20410	-0.021730453
75	0xbc0386dc	-0.008027758
76	0xb74a97af	-1.2075455e-05
77	0xbd5415f3	-0.051778745
78	0x3c7bc596	0.015366932
79	0xbd008036	-0.03137227
80	0xbd546848	-0.051857263
81	0x3d0b5342	0.034014948
82	0xbd8f30e5	-0.06991748
83	0xbd3acc0c	-0.04560475
84	0xbc16ba3c	-0.009199675
85	0x3def6e2c	0.116909355
86	0x3ba182a5	0.004928904
87	0x3c5534f9	0.013013118
88	0xbca7d4e7	-0.020487262
89	0xbdb6797d	-0.08909891
90	0xbd3f9236	-0.046770297
91	0xbcc3f686	-0.023921262
92	0x3d16f606	0.03685572
93	0xbd89c5e1	-0.067271955
94	0xbd67060e	-0.05640226
95	0xbd859bd2	-0.06523861
96	0x3c99b069	0.018760877
97	0x3b7ea8fe	0.0038858051
98	0xbd632a06	-0.05546
99	0xbdabb051	-0.08383239
100	0xbd5bae9b	-0.053633314
101	0xbcba432f	-0.022737114
102	0xbc84e44b	-0.01622214
103	0xbb5f4d33	-0.0034073114
104	0x3a986422	0.0011626522
105	0x3dc19491	0.09452165
106	0xbd1f8b05	-0.03895094
107	0x3cfa9151	0.03058687
108	0xbd28c351	-0.041201893
109	0x3ac238c9	0.0014817949
110	0xba461827	-0.00075566996
111	0xbc8ea26a	-0.01741143
112	0xbcea353e	-0.028589841
113	0xbcef5821	-0.029216828
114	0xbc59f038	-0.0133019015
115	0xbbeadfaa	-0.007167776
116	0xbc50a763	-0.012735221
117	0xbd0d7ec6	-0.03454473
118	0x3cb2cec8	0.021827117
119	0x3ced1548	0.028940812
120	0xbd5562ec	-0.052096292
121	0xbca23b30	-0.019803613
122	0xbd339ea8	-0.04385248
123	0xbcd66898	-0.026172921
124	0xbb683adc	-0.0035435474
125	0x3b31308f	0.0027037
126	0xbd7f77b0	-0.062370002
127	0xbcdd0337	-0.026979072
128	0x3d28b3bb	0.04118703
129	0xbcfd76b4	-0.030940391
130	0xbcc3e1e4	-0.023911424
131	0xbd6a4bbd	-0.057201136
132	0xb9b48f8a	-0.0003443922
133	0x3d1ea380	0.038730145
134	0xbd1bc706	-0.0380316
135	0x3c87d628	0.01658161
136	0x3e1215a5	0.14266069
137	0xbbb8845e	-0.005631014
138	0x3cb62d7f	0.022238491
139	0xbd8a4124	-0.06750706
140	0x3d149c0d	0.036281634
141	0xbd30d377	-0.04317042
142	0xbbae503f	-0.0053196247
143	0xbd30de48	-0.043180734
144	0xbd2ea7bd	-0.042640436
145	0x3d896fa8	0.0671075
146	0xbd3f0105	-0.04663183
147	0xbc9431cf	-0.018090157
148	0xbd1a6b04	-0.037699714
149	0xbb3116d6	-0.0027021668
150	0x3beb0a15	0.0071728327
151	0xbcbfe062	-0.023422424
152	0xbc0aa0d3	-0.008461195
153	0x3dc46063	0.09588697
154	0xbd9d43a3	-0.07678916
155	0xbd5ac473	-0.053410005
156	0x3cba63ed	0.022752726
157	0xbda608c0	-0.08107138
158	0x3c691773	0.014226782
159	0x3d9882d8	0.074468315
160	0xbc952fed	-0.01821133
161	0xbdcf3dd0	-0.10119212
162	0x3d53566c	0.05159609
163	0xbcea90c9	-0.028633492
164	0xbd8a3fbb	-0.06750437
165	0xbd23c8ca	-0.03998641
166	0xbc6bd941	-0.014395059
167	0xbd822ae3	-0.06355836
168	0x3e02a453	0.12757997
169	0x3c46e953	0.01214059
170	0x3b72fb71	0.003707614
171	0xbd2f1985	-0.042748947
172	0xbc7ddf36	-0.015495112
173	0x3c9edcfb	0.019392481
174	0xbcb0b2f3	-0.021569705
175	0xba4a29f3	-0.00077119394
176	0xbc4dfef9	-0.012572997
177	0xbd0cd974	-0.034387067
178	0x3ce00523	0.0273462
179	0xbd36258d	-0.044469405
180	0xbd7395fb	-0.059469204
181	0x3d491493	0.049091887
182	0xbd73f446	-0.05955913
183	0xbd0ae0e8	-0.033905894
184	0xbc440f95	-0.011966606
185	0x3e00de22	0.12584737
186	0x3b74c1b5	0.0037346904
187	0x3c2f6ece	0.01070757
188	0xbc475523	-0.012166294
189	0xbd90065d	-0.07032464
190	0xbd25ccd8	-0.040478557
191	0xbbc2bda9	-0.0059430194
192	0x3d224f50	0.03962642
193	0xbd6bd7e1	-0.057578925
194	0xbd3bba4f	-0.045831975
195	0xbd2f30f6	-0.042771302
196	0x3d202b64	0.03910388
197	0x3cf6eb61	0.030141534
198	0xbd1bb6dc	-0.038016185
199	0xbda2a561	-0.079417
200	0x3cd2a500	0.025713444
201	0x3d3bf487	0.045887496
202	0x3d1180ad	0.035523105
203	0x3da23578	0.079203546
204	0x3de5e4ec	0.11225304
205	0x3e41b1de	0.18915507
206	0x3d30e99d	0.04319154
207	0x3dc6dfae	0.09710632
208	0x3d0aed36	0.03391763
209	0x3d7e0e18	0.06202516
210	0x3dd18e97	0.10232275
211	0x3e13361a	0.14376107
212	0x3d887884	0.066636115
213	0x3d264273	0.040590715
214	0x3da4f7dc	0.08055088
215	0x3d8f3b46	0.069937274
216	0x3da8ae1f	0.08236336
217	0x3d4d83b1	0.05017442
218	0x3e118098	0.14209211
219	0x3de9807c	0.114014596
220	0x3ce9054b	0.028444907
221	0x3d8ca235	0.06866876
222	0x3d1c8961	0.038216952
223	0x3d2402d2	0.040041752
224	0x3d9aed08	0.075647414
225	0x3da6baf0	0.08141124
226	0x3d03f29b	0.03221379
227	0x3d5bf57c	0.05370091
228	0x3e2c91b2	0.16852453
229	0x3d18ced2	0.037306614
230	0x3d629142	0.05531431
231	0x3ce46479	0.02787994
232	0x3dbdc338	0.09265751
233	0x3e05262d	0.13002844
234	0x3d92e002	0.07171632
235	0x3da0a644	0.07844213
236	0x3e82c95a	0.25544244
237	0x3d7ebb91	0.062190596
238	0x3e37b68b	0.17940728
239	0x3c42322a	0.01185278
240	0x3e1b7729	0.15182175
241	0x3c9df085	0.019279728
242	0x3d6a34c5	0.05717923
243	0x3d31eb30	0.043437183
244	0x3d6b5175	0.05745073
245	0x3e356f08	0.17718136
246	0x3d60d892	0.054894038
247	0x3da6e668	0.08149415
248	0x3d3fa0b1	0.046784107
249	0x3d95b3e0	0.07309699
250	0x3d96f932	0.07371749
251	0x3d35c9b9	0.04438183
252	0x3daa5beb	0.08318313
253	0x3e6dec44	0.2323466
254	0xbc84f446	-0.01622976
255	0x3b8ebd10	0.004356034

Block7107_Output_0_initial_h f4 [1, 1, 100]
0	0x3dcccccd	0.1
1	0x3dcccccd	0.1
2	0x3dcccccd	0.1
3	0x3dcccccd	0.1
4	0x3dcccccd	0.1
5	0x3dcccccd	0.1
6	0x3dcccccd	0.1
7	0x3dcccccd	0.1
8	0x3dcccccd	0.1
9	0x3dcccccd	0.1
10	0x3dcccccd	0.1
11	0x3dcccccd	0.1
12	0x3dcccccd	0.1
13	0x3dcccccd	0.1
14	0x3dcccccd	0.1
15	0x3dcccccd	0.1
16	0x3dcccccd	0.1
17	0x3dcccccd	0.1
18	0x3dcccccd	0.1
19	0x3dcccccd	0.1
20	0x3dcccccd	0.1
21	0x3dcccccd	0.1
22	0x3dcccccd	0.1
23	0x3dcccccd	0.1
24	0x3dcccccd	0.1
25	0x3dcccccd	0.1
26	0x3dcccccd	0.1
27	0x3dcccccd	0.1
28	0x3dcccccd	0.1
29	0x3dcccccd	0.1
30	0x3dcccccd	0.1
31	0x3dcccccd	0.1
32	0x3dcccccd	0.1
33	0x3dcccccd	0.1
34	0x3dcccccd	0.1
35	0x3dcccccd	0.1
36	0x3dcccccd	0.1
37	0x3dcccccd	0.1
38	0x3dcccccd	0.1
39	0x3dcccccd	0.1
40	0x3dcccccd	0.1
41	0x3dcccccd	0.1
42	0x3dcccccd	0.1
43	0x3dcccccd	0.1
44	0x3dcccccd	0.1
45	0x3dcccccd	0.1
46	0x3dcccccd	0.1
47	0x3dcccccd	0.1
48	0x3dcccccd	0.1
49	0x3dcccccd	0.1
50	0x3dcccccd	0.1
51	0x3dcccccd	0.1
52	0x3dcccccd	0.1
53	0x3dcccccd	0.1
54	0x3dcccccd	0.1
55	0x3dcccccd	0.1
56	0x3dcccccd	0.1
57	0x3dcccccd	0.1
58	0x3dcccccd	0.1
59	0x3dcccccd	0.1
60	0x3dcccccd	0.1
61	0x3dcccccd	0.1
62	0x3dcccccd	0.1
63	0x3dcccccd	0.1
64	0x3dcccccd	0.1
65	0x3dcccccd	0.1
66	0x3dcccccd	0.1
67	0x3dcccccd	0.1
68	0x3dcccccd	0.1
69	0x3dcccccd	0.1
70	0x3dcccccd	0.1
71	0x3dcccccd	0.1
72	0x3dcccccd	0.1
73	0x3dcccccd	0.1
74	0x3dcccccd	0.1
75	0x3dcccccd	0.1
76	0x3dcccccd	0.1
77	0x3dcccccd	0.1
78	0x3dcccccd	0.1
79	0x3dcccccd	0.1
80	0x3dcccccd	0.1
81	0x3dcccccd	0.1
82	0x3dcccccd	0.1
83	0x3dcccccd	0.1
84	0x3dcccccd	0.1
85	0x3dcccccd	0.1
86	0x3dcccccd	0.1
87	0x3dcccccd	0.1
88	0x3dcccccd	0.1
89	0x3dcccccd	0.1
90	0x3dcccccd	0.1
91	0x3dcccccd	0.1
92	0x3dcccccd	0.1
93	0x3dcccccd	0.1
94	0x3dcccccd	0.1
95	0x3dcccccd	0.1
96	0x3dcccccd	0.1
97	0x3dcccccd	0.1
98	0x3dcccccd	0.1
99	0x3dcccccd	0.1

Block7107_Output_1_initial_c f4 [1, 1, 100]
0	0x3dcccccd	0.1
1	0x3dcccccd	0.1
2	0x3dcccccd	0.1
3	0x3dcccccd	0.1
4	0x3dcccccd	0.1
5	0x3dcccccd	0.1
6	0x3dcccccd	0.1
7	0x3dcccccd	0.1
8	0x3dcccccd	0.1
9	0x3dcccccd	0.1
10	0x3dcccccd	0.1
11	0x3dcccccd	0.1
12	0x3dcccccd	0.1
13	0x3dcccccd	0.1
14	0x3dcccccd	0.1
15	0x3dcccccd	0.1
16	0x3dcccccd	0.1
17	0x3dcccccd	0.1
18	0x3dcccccd	0.1
19	0x3dcccccd	0.1
20	0x3dcccccd	0.1
21	0x3dcccccd	0.1
22	0x3dcccccd	0.1
23	0x3dcccccd	0.1
24	0x3dcccccd	0.1
25	0x3dcccccd	0.1
26	0x3dcccccd	0.1
27	0x3dcccccd	0.1
28	0x3dcccccd	0.1
29	0x3dcccccd	0.1
30	0x3dcccccd	0.1
31	0x3dcccccd	0.1
32	0x3dcccccd	0.1
33	0x3dcccccd	0.1
34	0x3dcccccd	0.1
35	0x3dcccccd	0.1
36	0x3dcccccd	0.1
37	0x3dcccccd	0.1
38	0x3dcccccd	0.1
39	0x3dcccccd	0.1
40	0x3dcccccd	0.1
41	0x3dcccccd	0.1
42	0x3dcccccd	0.1
43	0x3dcccccd	0.1
44	0x3dcccccd	0.1
45	0x3dcccccd	0.1
46	0x3dcccccd	0.1
47	0x3dcccccd	0.1
48	0x3dcccccd	0.1
49	0x3dcccccd	0.1
50	0x3dcccccd	0.1
51	0x3dcccccd	0.1
52	0x3dcccccd	0.1
53	0x3dcccccd	0.1
54	0x3dcccccd	0.1
55	0x3dcccccd	0.1
56	0x3dcccccd	0.1
57	0x3dcccccd	0.1
58	0x3dcccccd	0.1
59	0x3dcccccd	0.1
60	0x3dcccccd	0.1
61	0x3dcccccd	0.1
62	0x3dcccccd	0.1
63	0x3dcccccd	0.1
64	0x3dcccccd	0.1
65	0x3dcccccd	0.1
66	0x3dcccccd	0.1
67	0x3dcccccd	0.1
68	0x3dcccccd	0.1
69	0x3dcccccd	0.1
70	0x3dcccccd	0.1
71	0x3dcccccd	0.1
72	0x3dcccccd	0.1
73	0x3dcccccd	0.1
74	0x3dcccccd	0.1
75	0x3dcccccd	0.1
76	0x3dcccccd	0.1
77	0x3dcccccd	0.1
78	0x3dcccccd	0.1
79	0x3dcccccd	0.1
80	0x3dcccccd	0.1
81	0x3dcccccd	0.1
82	0x3dcccccd	0.1
83	0x3dcccccd	0.1
84	0x3dcccccd	0.1
85	0x3dcccccd	0.1
86	0x3dcccccd	0.1
87	0x3dcccccd	0.1
88	0x3dcccccd	0.1
89	0x3dcccccd	0.1
90	0x3dcccccd	0.1
91	0x3dcccccd	0.1
92	0x3dcccccd	0.1
93	0x3dcccccd	0.1
94	0x3dcccccd	0.1
95	0x3dcccccd	0.1
96	0x3dcccccd	0.1
97	0x3dcccccd	0.1
98	0x3dcccccd	0.1
99	0x3dcccccd	0.1
