src/iMLP/models/ONNX/non_plant/IMTS_nonPlant_HumanMouseYeast.onnx (onnx, 25191 bytes, 14 tensors)

W f4 [200, 1]
00000000: 68e3 fabd affb eabd a5af 02bd b21d 44be
00000010: cde2 47bd 59a7 fd3d 527e 1a3c 9123 04be
00000020: 3f8a 733a a05c 863d 1ff0 39be 3ec7 8c3d
00000030: 9c00 8c3d 43da d4bd c3d5 24bd 1222 d7bd
00000040: 20f5 9abd 376c d33d edf8 033c 8e80 86bd
00000050: 30b4 14be 9e5e 5f3d 4375 04bd e39e 2abd
00000060: eef1 8abd c37d 07be df00 0cbe 8376 08be
00000070: df7c 6e3d d643 0a3d 9594 eb3d 6d33 33bc
00000080: 0296 1cbc ee5d 9dbc 6339 fabd 166f dcbc
00000090: 6509 193e c338 43bd 3517 52be 5832 a4bd
000000a0: a760 0a3e e8e3 09be e727 363d 7429 18be
000000b0: ac29 e13d f63b 153e 4c3a 043d 8856 0b3e
000000c0: fd79 f23d af26 d5bd 39d6 ef3d b892 693b
000000d0: affb e9bc 1ed6 8f3d 9109 11be a2d2 21bd
000000e0: 5e44 0fbe e5ea 28be 841b e2bd c2c9 1bbe
000000f0: ce4a 05be 5c44 2abe c17f edbd 1cc3 80bd
00000100: bd39 2b3e 6bd5 af3c bca7 043e a983 19be
00000110: ead2 de3d 290d 993d 2577 aa3d 87f0 183e
00000120: 69a3 c53c 64f5 e6bb dc9c c9bd 54da 233e
00000130: 199e 1e3d 5d3a 17bb 61f6 383d c90f 183d
00000140: 4376 3b3d 16e2 873d 3d27 a5bc 11c2 343d
00000150: e0e0 9b3d 8ffe d53d 1a83 ca3d 762a 80bd
00000160: 0e60 45be cbf0 ddbd c0af bdbb b199 e83d
00000170: 7819 bf3d 1210 05be 2a2e bcbd 13c3 d43d
00000180: c87a fabc 70e5 273e 4b61 093e fe53 883d
00000190: 971d 953d cfe1 213e 9607 ec3d cabd 44be
000001a0: 2606 2b3e 862e b8bd ae90 443e 47ec 08be
000001b0: 45ec edbd 5399 b9bc 1275 bb3b b27e ac3d
000001c0: 321d c73c d75e 0ebe c232 1dbe be60 08be
000001d0: 08a8 183d ad2c a5bc 9a52 3abb a7f1 eb3c
000001e0: 2562 893d 9eaf 61bd b1c6 fcbd 3dac 0c3e
000001f0: 1756 bb3d b186 24be f9d0 fa3d 3da3 87bc
00000200: a71f 15be b0ed 84bd 0d5c 2b3c 12d9 7abd
00000210: ec81 4ebc 913d f6bd 31a4 8fbd 316a 383d
00000220: f26b 21be 8e8d d43d 568a e93d 268e 3b3e
00000230: 1840 4cbe 09ee 63bd 481e 953d 692f 39be
00000240: 7d70 f03d 9296 823d 894a b23d 1931 1fbd
00000250: 97d6 36be 6f48 a1bd 9504 1ebd 3c82 adbd
00000260: 72bb e9bc 8250 a83d 05c7 04be 1b9b 9cbc
00000270: 6da5 a03d 64bd 80bb aa8b 11be 7645 813c
00000280: d889 75bd 59f4 acbd e43f 3dbe 5a3d 0fbe
00000290: edee 15be e3b9 b7bc c8ca 193e 2ba8 e6bb
000002a0: 519e 44be ecb5 ff3d c36e 9bbd 3171 6bbd
000002b0: e5ac 87bc e7c9 453e 28a9 4a3d 6088 2cbd
000002c0: 6385 01bd 6348 32be 833b cc3c aa84 c73d
000002d0: 2f9c 57bd 2678 dd3d cc73 103e ce58 323d
000002e0: 7e4e 6dbc ec58 f8bd a293 21be 05b0 11bd
000002f0: 3a05 1e3e 7409 393e 8653 05be 1ef5 11bd
00000300: 0587 7f3d c013 e5bd a79f 64be 3d1c 993d
00000310: 8094 a73d 0344 81bd 16a6 283d f811 34be
-0.122504056 -0.11473786 -0.03190579 -0.19151953 -0.04880028 0.12385435 0.009429531 -0.12904193
0.00092903146 0.065606356 -0.18158005 0.0687394 0.06836054 -0.103931926 -0.04024292 -0.10504545
-0.07566285 0.10323375 0.008054954 -0.065674886 -0.14521861 0.054533593 -0.032338392 -0.041655432
-0.06784426 -0.13231568 -0.13672207 -0.13326459 0.058224555 0.0337561 0.11502949 -0.010937554
-0.009557249 -0.019209828 -0.12217977 -0.026908439 0.1494499 -0.047661554 -0.20516665 -0.08017415
0.13513432 -0.13465846 0.044471648 -0.14859563 0.109942764 0.14573655 0.03228216 0.13607228
0.11839674 -0.10407769 0.117107816 0.003564043 -0.028562395 0.070232615 -0.14163806 -0.039507516
-0.13990924 -0.16495855 -0.110404044 -0.15213683 -0.13016817 -0.1662764 -0.11596633 -0.06287214
0.16721244 0.02146407 0.1295461 -0.1499163 0.108800724 0.07473213 0.08323506 0.14935504
0.024125772 -0.007048296 -0.09844372 0.16001254 0.038724992 -0.0023075559 0.04515684 0.03712443
0.04576708 0.06634919 -0.020160312 0.04413039 0.07611251 0.10448944 0.09888287 -0.06258099
-0.19274923 -0.10836943 -0.0057887733 0.11357439 0.0933103 -0.12994412 -0.091884926 0.1038877
-0.030576125 0.16396117 0.1341602 0.06656645 0.072810344 0.15808795 0.115248844 -0.19213024
0.16701564 -0.08993249 0.19195816 -0.13371383 -0.116173305 -0.022656118 0.005720743 0.08422603
0.024305914 -0.13903366 -0.15351394 -0.13318154 0.037269622 -0.020162905 -0.0028430582 0.028801752
0.06708173 -0.055099122 -0.12342585 0.13737579 0.0914728 -0.16067006 0.122468896 -0.01655733
-0.14562856 -0.06490648 0.010458958 -0.06124217 -0.012604218 -0.120234616 -0.07013739 0.045023147
-0.15763834 0.10378562 0.114033386 0.18315944 -0.19946325 -0.05564693 0.07281166 -0.18084492
0.117402054 0.06376375 0.08705623 -0.038865183 -0.17855297 -0.07875144 -0.03857859 -0.08472106
-0.028531764 0.08218481 -0.12966545 -0.019116929 0.078440525 -0.003928827 -0.14213434 0.015780192
-0.05994591 -0.08445043 -0.18481404 -0.13988248 -0.14641924 -0.022427505 0.15018761 -0.00703909
-0.19201018 0.12485871 -0.075894855 -0.057480995 -0.016561935 0.19315301 0.049477726 -0.042122245
-0.031621348 -0.17410426 0.024930721 0.097421005 -0.052639183 0.10813932 0.14106673 0.043541722
-0.014484046 -0.121263355 -0.15778974 -0.035568256 0.15431681 0.18070012 -0.13020143 -0.035634153
0.062384624 -0.11185408 -0.22326528 0.07476089 0.08182621 -0.063118 0.041174017 -0.1758498

Parameter4927 f4 [1, 800]
00000000: 9bff a1bc 955d 47b8 02a3 c7bd caee f53c
00000010: eb4e eabc 64c3 24bd b513 14bd 1610 92bd
00000020: d43b 533d b37e febb 1bf4 973d 45ee 313d
00000030: c9e2 54bd ba51 c839 fdf4 33bd 6033 8abc
00000040: eb51 35bd c115 88bc 01a1 64bc de7d 87bd
00000050: eb8d 233e 61d0 83bd a640 d33c 67e8 bdbc
00000060: 7694 8b3c 0a6f e83c eed7 3a3b cbde 98bc
00000070: 39e8 b3bc ca9d 22bd bd57 0aba 00d9 adbd
00000080: c487 80bd 5eac 9bbc 1af8 01bd cc7e f83c
00000090: 3301 813c a6d3 9cbc 9229 a43c bac6 21bd
000000a0: 4af9 663b eac4 8c3d 547e c9bc f920 0cbd
000000b0: 75c1 f83d bf0c 14bd 1c71 30bd fe6e 04bd
000000c0: 6256 08bd 7313 22bd 2c01 d03b 2c5a e6bc
000000d0: ad70 b33d 69b3 bdbc 836f 24bd 540b 59bd
000000e0: 23ea 353d 6562 fb3b 4942 e83b fde1 eabc
000000f0: 47d2 7abd 555f 92bc e2e2 07bd 83a9 3dbd
00000100: 594c b53c 5e57 46bd 319a 19bd 767f dd39
00000110: b45a 473d f4de b9bb 9df1 d9bc 586d 23bd
00000120: 922d 9bbc ddf7 0c3d 9e2d 0c3b e9f9 46bc
00000130: 3217 eebc ea92 74bd 13eb c6bc 9921 7fbd
00000140: f270 65bd 205c 4bbd a860 2fbd feb1 0cbd
00000150: 53f7 76bd 42e4 61bd 543e 043d f21f 5bba
00000160: d3f0 9a3c 469f a2bc 7953 55bd 4b66 413c
00000170: ab42 81bc 788a 99bc 6bcd 36bd f0ea d239
00000180: bd78 953a 25f9 40bc 5a38 c2bc f8f6 c3bd
00000190: c860 efbc 7df2 5dbc f6c4 d4bd 3bff 383c
000001a0: ee34 07bd 11f9 8ebd 5779 04bd ca03 95bd
000001b0: 1c6d 0c3d 7afe 1fbb 11e9 613d 30a3 e03c
000001c0: f109 6dbd 9dfb 7ebb 98c6 51bd 1f6a eabc
000001d0: b137 3cbd 9056 c1bc d435 3d3b c267 8bbd
000001e0: 3c32 1a3e 5ab5 7abd 3e82 eb3b 0ee2 fabc
000001f0: c69a fe3b cd55 203b 5cd7 dcbb 0c81 d8bc
00000200: c87c 03bd 5a43 2dbd 0421 80bc 0373 b0bd
00000210: 30fa 85bd fe15 fbbb 5ce5 a0bc 1b5d 023d
00000220: d02b 923a e0ba 5dbc 0d60 043d 06fb 24bd
00000230: eacf ffbb f921 b53d d628 ddbc de78 19bd
00000240: ff37 fb3d 60d9 05bd 4589 31bd 5a1a 0cbd
00000250: 7bab 1fbd 1d12 23bd e9e6 a5bb 0e59 fcbc
00000260: dce1 603d c409 edbc 47b0 2dbd 22d1 23bd
00000270: c5fa 373d fd89 9cbb 9155 5a3a f145 0fbd
00000280: 7ca8 87bd 7656 a5bc b4f8 28bd ca6e 58bd
00000290: 87b5 813b 7ee6 4bbd e587 17bd 8b81 28bc
000002a0: 9120 4c3d 92e7 18bc 52cb 07bd edad 4ebd
000002b0: 0fb2 d1bc 7dc9 013d cbb8 0ebc 51ca 95bc
000002c0: 4d75 e6bc 521f 52bd 5779 a1bc f60b 84bd
000002d0: ef29 79bd f40c 33bd fce0 44bd 9691 05bd
000002e0: e85e 71bd c2dd 6bbd 9604 fd3b 54c2 ebbb
000002f0: 64d6 353c 2117 f8bc e6c9 20bd 12a4 1e3c
00000300: 3f11 84bc 8991 27bd 19f6 1cbd 0871 25bb
00000310: c693 f9ba 676a 9dbc 4a11 e4bc 37af e2bd
00000320: a0a1 91bc 94c1 0abd ff92 0fbe 5c98 e13c
00000330: 0c02 f2bc 9489 13bc 2962 62bd bb73 51bd
00000340: 6a6c 26bd 6423 7c3c 8607 0ebd 0df5 2c3d
00000350: 509c 48bd 04af 6a3c 5caa 43bd e7ed 5ebd
00000360: 2c42 3fbd cd18 38bc 9cd7 ce39 9625 7dbd
00000370: 80ad 4ebe 9395 64bd 93ad 823c d181 27bd
00000380: 88aa 14bc 2d3d 7ebc 1590 0e3c 31f3 2fbd
00000390: 5ef6 35bd dce5 28bd 52d2 8cbb 1726 bebd
000003a0: 1c3d e1bc d773 27bd 3245 08bd ba57 503d
000003b0: 7a5f 3e3c 88c2 e0bc 9c02 033d f44f a6bd
000003c0: b810 0139 769c c53c 9936 3ebd 3b08 16bd
000003d0: d45c d43d e638 19bd 2003 98bc 97c7 aabc
000003e0: ef66 02bd c2e1 75bc 0cda 323c 8878 9abd
000003f0: a382 763d a162 503c 706c e5bc ef38 d3bc
-0.019775202 -4.7532452e-05 -0.09747888 0.03002109 -0.028602084 -0.0402254 -0.036151607 -0.071319744
0.05157073 -0.0077665686 0.07419606 0.043440122 -0.05197409 0.00038207864 -0.04393481 -0.0168702
-0.044267576 -0.016611936 -0.013954402 -0.06615804 0.15972106 -0.064362295 0.025787663 -0.023182107
0.017038565 0.02837326 0.0028510052 -0.018660923 -0.021961318 -0.03970126 -0.0005277356 -0.08488655
-0.06275895 -0.01900309 -0.03173075 0.030333899 0.015747642 -0.01914389 0.020039354 -0.03949616
0.0035243803 0.06873496 -0.02459637 -0.034211133 0.12146274 -0.036144968 -0.04307662 -0.032332413
-0.033285506 -0.03956933 0.006347796 -0.02811917 0.087617256 -0.023156838 -0.04014541 -0.05298932
0.044412743 0.0076716417 0.00708798 -0.028672213 -0.061235692 -0.017867723 -0.033175357 -0.046304237
0.022131132 -0.048423164 -0.037500564 0.0004224737 0.048670486 -0.00567233 -0.026604468 -0.0398992
-0.018942628 0.03441607 0.0021389495 -0.012144544 -0.029063795 -0.05971042 -0.024282014 -0.0622879
-0.056015916 -0.049648404 -0.042816788 -0.034349434 -0.06029446 -0.055149324 0.032286003 -0.0008358947
0.018913662 -0.019851338 -0.05208156 0.011804174 -0.01577886 -0.018742785 -0.044629496 0.00040229363
0.0011403781 -0.011778151 -0.023708511 -0.0956859 -0.029220954 -0.013546583 -0.1038913 0.01129132
-0.033009462 -0.069810994 -0.03234228 -0.07276113 0.034283742 -0.0024413154 0.05515391 0.027421564
-0.05787081 -0.0038907297 -0.051214784 -0.028615056 -0.04595155 -0.023600847 0.0028871195 -0.068068996
0.15058225 -0.061208107 0.007187157 -0.03062537 0.0077699153 0.0024465204 -0.00673954 -0.026428722
-0.032101423 -0.04230056 -0.015640743 -0.08615687 -0.0654186 -0.007662534 -0.019640617 0.031827074
0.0011151973 -0.013533324 0.032318164 -0.040278457 -0.0078067677 0.088443704 -0.026997011 -0.037468784
0.1226654 -0.032678008 -0.0433438 -0.03420482 -0.038981896 -0.039812196 -0.005062927 -0.030804183
0.054902896 -0.02893532 -0.04240444 -0.039994366 0.044916887 -0.0047771917 0.00083287904 -0.03497881
-0.06623933 -0.02018283 -0.041252807 -0.05284003 0.0039584073 -0.04978036 -0.036994833 -0.010284792
0.049835745 -0.009332554 -0.033152886 -0.050458837 -0.0255976 0.031686295 -0.00871105 -0.018284949
-0.028132105 -0.0512994 -0.01971118 -0.06447594 -0.060831007 -0.043713525 -0.048066124 -0.032609545
-0.0589284 -0.05758453 0.007721494 -0.0071947966 0.011098478 -0.030284466 -0.039255045 0.009682672
-0.016121505 -0.040910278 -0.038320635 -0.0025244374 -0.0019041232 -0.019215776 -0.027840275 -0.11068576
-0.017777264 -0.033876017 -0.14020918 0.02753847 -0.029541992 -0.009004969 -0.055269394 -0.05113576
-0.040630735 0.015389297 -0.034675144 0.042225886 -0.048977196 0.014323954 -0.04776989 -0.0544261
-0.046693966 -0.011236382 0.00039452023 -0.061803423 -0.20183372 -0.055806708 0.015951907 -0.040895287
-0.009073861 -0.015517515 0.008701344 -0.042956535 -0.044424407 -0.041234836 -0.004297533 -0.09284609
-0.02749496 -0.040881958 -0.033269115 0.050864913 0.011619443 -0.02743651 0.03198491 -0.081207186
0.00012308627 0.024122458 -0.046438787 -0.036628943 0.10369268 -0.03740778 -0.018556178 -0.020847125
-0.031836446 -0.015007438 0.010916244 -0.07542521 0.06018318 0.012718827 -0.028005809 -0.025783984

Block7191_Output_0_initial_h f4 [1, 1, 100]
00000000: cdcc cc3d cdcc cc3d cdcc cc3d cdcc cc3d
00000010: cdcc cc3d cdcc cc3d cdcc cc3d cdcc cc3d
00000020: cdcc cc3d cdcc cc3d cdcc cc3d cdcc cc3d
00000030: cdcc cc3d cdcc cc3d cdcc cc3d cdcc cc3d
00000040: cdcc cc3d cdcc cc3d cdcc cc3d cdcc cc3d
00000050: cdcc cc3d cdcc cc3d cdcc cc3d cdcc cc3d
00000060: cdcc cc3d cdcc cc3d cdcc cc3d cdcc cc3d
00000070: cdcc cc3d cdcc cc3d cdcc cc3d cdcc cc3d
00000080: cdcc cc3d cdcc cc3d cdcc cc3d cdcc cc3d
00000090: cdcc cc3d cdcc cc3d cdcc cc3d cdcc cc3d
000000a0: cdcc cc3d cdcc cc3d cdcc cc3d cdcc cc3d
000000b0: cdcc cc3d cdcc cc3d cdcc cc3d cdcc cc3d
000000c0: cdcc cc3d cdcc cc3d cdcc cc3d cdcc cc3d
000000d0: cdcc cc3d cdcc cc3d cdcc cc3d cdcc cc3d
000000e0: cdcc cc3d cdcc cc3d cdcc cc3d cdcc cc3d
000000f0: cdcc cc3d cdcc cc3d cdcc cc3d cdcc cc3d
00000100: cdcc cc3d cdcc cc3d cdcc cc3d cdcc cc3d
00000110: cdcc cc3d cdcc cc3d cdcc cc3d cdcc cc3d
00000120: cdcc cc3d cdcc cc3d cdcc cc3d cdcc cc3d
00000130: cdcc cc3d cdcc cc3d cdcc cc3d cdcc cc3d
00000140: cdcc cc3d cdcc cc3d cdcc cc3d cdcc cc3d
00000150: cdcc cc3d cdcc cc3d cdcc cc3d cdcc cc3d
00000160: cdcc cc3d cdcc cc3d cdcc cc3d cdcc cc3d
00000170: cdcc cc3d cdcc cc3d cdcc cc3d cdcc cc3d
00000180: cdcc cc3d cdcc cc3d cdcc cc3d cdcc cc3d
0.1 0.1 0.1 0.1 0.1 0.1 0.1 0.1
0.1 0.1 0.1 0.1 0.1 0.1 0.1 0.1
0.1 0.1 0.1 0.1 0.1 0.1 0.1 0.1
0.1 0.1 0.1 0.1 0.1 0.1 0.1 0.1
0.1 0.1 0.1 0.1 0.1 0.1 0.1 0.1
0.1 0.1 0.1 0.1 0.1 0.1 0.1 0.1
0.1 0.1 0.1 0.1 0.1 0.1 0.1 0.1
0.1 0.1 0.1 0.1 0.1 0.1 0.1 0.1
0.1 0.1 0.1 0.1 0.1 0.1 0.1 0.1
0.1 0.1 0.1 0.1 0.1 0.1 0.1 0.1
0.1 0.1 0.1 0.1 0.1 0.1 0.1 0.1
0.1 0.1 0.1 0.1 0.1 0.1 0.1 0.1
0.1 0.1 0.1 0.1

Block7191_Output_1_initial_c f4 [1, 1, 100]
00000000: cdcc cc3d cdcc cc3d cdcc cc3d cdcc cc3d
00000010: cdcc cc3d cdcc cc3d cdcc cc3d cdcc cc3d
00000020: cdcc cc3d cdcc cc3d cdcc cc3d cdcc cc3d
00000030: cdcc cc3d cdcc cc3d cdcc cc3d cdcc cc3d
00000040: cdcc cc3d cdcc cc3d cdcc cc3d cdcc cc3d
00000050: cdcc cc3d cdcc cc3d cdcc cc3d cdcc cc3d
00000060: cdcc cc3d cdcc cc3d cdcc cc3d cdcc cc3d
00000070: cdcc cc3d cdcc cc3d cdcc cc3d cdcc cc3d
00000080: cdcc cc3d cdcc cc3d cdcc cc3d cdcc cc3d
00000090: cdcc cc3d cdcc cc3d cdcc cc3d cdcc cc3d
000000a0: cdcc cc3d cdcc cc3d cdcc cc3d cdcc cc3d
000000b0: cdcc cc3d cdcc cc3d cdcc cc3d cdcc cc3d
000000c0: cdcc cc3d cdcc cc3d cdcc cc3d cdcc cc3d
000000d0: cdcc cc3d cdcc cc3d cdcc cc3d cdcc cc3d
000000e0: cdcc cc3d cdcc cc3d cdcc cc3d cdcc cc3d
000000f0: cdcc cc3d cdcc cc3d cdcc cc3d cdcc cc3d
00000100: cdcc cc3d cdcc cc3d cdcc cc3d cdcc cc3d
00000110: cdcc cc3d cdcc cc3d cdcc cc3d cdcc cc3d
00000120: cdcc cc3d cdcc cc3d cdcc cc3d cdcc cc3d
00000130: cdcc cc3d cdcc cc3d cdcc cc3d cdcc cc3d
00000140: cdcc cc3d cdcc cc3d cdcc cc3d cdcc cc3d
00000150: cdcc cc3d cdcc cc3d cdcc cc3d cdcc cc3d
00000160: cdcc cc3d cdcc cc3d cdcc cc3d cdcc cc3d
00000170: cdcc cc3d cdcc cc3d cdcc cc3d cdcc cc3d
00000180: cdcc cc3d cdcc cc3d cdcc cc3d cdcc cc3d
0.1 0.1 0.1 0.1 0.1 0.1 0.1 0.1
0.1 0.1 0.1 0.1 0.1 0.1 0.1 0.1
0.1 0.1 0.1 0.1 0.1 0.1 0.1 0.1
0.1 0.1 0.1 0.1 0.1 0.1 0.1 0.1
0.1 0.1 0.1 0.1 0.1 0.1 0.1 0.1
0.1 0.1 0.1 0.1 0.1 0.1 0.1 0.1
0.1 0.1 0.1 0.1 0.1 0.1 0.1 0.1
0.1 0.1 0.1 0.1 0.1 0.1 0.1 0.1
0.1 0.1 0.1 0.1 0.1 0.1 0.1 0.1
0.1 0.1 0.1 0.1 0.1 0.1 0.1 0.1
0.1 0.1 0.1 0.1 0.1 0.1 0.1 0.1
0.1 0.1 0.1 0.1 0.1 0.1 0.1 0.1
0.1 0.1 0.1 0.1

Parameter3761 f4 [1, 800]
00000000: 42a1 8c3c 4acc b4bd 9c76 76bd a518 62bd
00000010: 7bb4 a9bc 70ab 49bc 3e9f dcbc 52ee 2cbc
00000020: 6e30 dbbc fbdf eebc 68c8 51bd 3312 93bd
00000030: 6893 26bd 5d68 9cbd a6ab 91bc 31c8 0ebd
00000040: ac9c 18bd 6f04 efbc 35ff 86bd f05d 87bd
00000050: 5817 fcbc fcc5 db3c f0be 443d 8d64 93bd
00000060: c337 a13c c2a8 16bb cf34 32bd 0b42 053d
00000070: 5918 c9bc b050 25bd 6672 fdbc 1dd2 51bd
00000080: 3b1b 83bd 860b 943d 0028 51bc 0e73 443c
00000090: fc36 87ba 5547 0fbd bf34 2bbc ecf8 a4bd
000000a0: 4dd5 90bd ec67 33bb 24cc 18bd 5a9b 45bd
000000b0: 7c26 31bd ab83 a1bc c73f d0bc c4c4 943c
000000c0: 5fe5 43bd 23a1 0f3d 1bd0 7b3b ddaa 4fbd
000000d0: 8ae5 46bd 8c1d ddbc b00b 75bd a76a d63c
000000e0: 407e 93bc 76b5 cabd ead7 e2bc d9e4 793c
000000f0: 56e2 123c 3e70 f3bd 2452 7ebd 3fc8 68bc
00000100: a48f 023c 4c28 293d a2dd 17bd 7d85 03bc
00000110: e487 2abd 2c54 3ebd 2e4b 8fbd 49e7 003c
00000120: cb99 1b3c 75ce 543d 3e47 443c b85f 44bd
00000130: 61dd 4f3c ccd8 b7bc 1be4 943d 7b9b d73d
00000140: 6e0e 49bc 7ad4 04bd 25ab b33d 566d 8abd
00000150: 306c 88bd 53bd d83c 658a 193d 91c2 34bb
00000160: a36d 6bbd 7ff1 2ebc 54e4 aab9 97fc 8d3d
00000170: f83a 88bc 07b7 5fbd 1d95 bfbd e6a8 f1bd
00000180: b56f 023d 6095 46bd 2772 babc bde5 113c
00000190: a0a0 07bb 6d73 9abd a164 72bd be09 2abd
000001a0: f671 3bbb 8da8 0c3b aacd a7ba c069 3bbb
000001b0: cd9f 90bc 7c57 fcbc 574a 2dbd 9668 95bd
000001c0: 4ccc 95bc 06cf 9abd 49fe 7abc 63ec d5bc
000001d0: 9c14 8cbc 62fa f8bc 3e3e 82bd 1922 5ebd
000001e0: 2fd2 0bbd b96f 183d ecee 273d dd57 83bd
000001f0: 5c0c 233c d02b 503b 462c 34bd 4ace 0c3d
00000200: 2b13 b2bb cc29 32bd bfa0 febc 2a1d 5ebd
00000210: f661 60bd 9b05 9c3d 9585 763c acd2 9bbb
00000220: b987 70ba 7e28 22bc 1183 31bc 069e 94bd
00000230: 98aa 73bd 7675 1f3b 694d 0fbd 2619 57bd
00000240: b4cf 23bd dd7d a23b 1d6a 0cbc 1376 003d
00000250: ca4e 65bd ba03 163d ab2b 903c 7f28 02bd
00000260: f15c 48bd 36c1 e4bc 31ff 72bd d7d3 f23c
00000270: d84e 57bc 379d adbd f136 fbbc 2fd8 3c3c
00000280: e3f2 7b3a f30e e3bd 91b1 5bbd 66a1 a0bc
00000290: 24be 943c 9d72 3e3d 6254 07bd 929f a83b
000002a0: d27d ecbc 2746 13bd 1d75 6fbd 30a9 5b3c
000002b0: f845 a73c b76d 653d cf54 553c 93e4 96bc
000002c0: 8a3f 143d d4b0 cdbc e25b a83d a9bc da3d
000002d0: f6dc 6bbb 6bca dabc 6a89 063e 7b3e 84bd
000002e0: e3a6 6ebd b51c 3c3d 8026 6e3d 6682 0b3b
000002f0: ff61 5cbd f480 49bc ac9e 793c 78f6 9b3d
00000300: 5153 abbc 5625 5fbd d25d 89bd 5a03 dbbd
00000310: ba7e 693d 5e9e 02bd 94b3 f3bc d9dd 6b3c
00000320: 0395 973d 13f3 85bd 8394 e5bc bc46 263c
00000330: 8be1 d03b 27c9 643d b8c9 023d e81f 2c3c
00000340: faa2 27bc 6be6 a63c 06de 913c 0d34 cdbd
00000350: 3899 1e3c 0eaf 8abd a2b1 c6bc ce21 66bc
00000360: cf55 7dbc afd7 293c 0249 f0bd dca6 debc
00000370: ac69 c1bc d69e 253d 73bf cf3d 0144 84bd
00000380: a82e 713d e961 343d 39f9 c4bb 6642 af3d
00000390: da5d 9c3c 5f48 abbb f7cc 223c b3ff 01bd
000003a0: 4dc5 a3bc 045e e83d 0863 3d3d 2559 1e3d
000003b0: 51cc 5f3d d8fc ca3c 28fc 743d 7e8b bebd
000003c0: 5081 29bd 4af8 303d 4f27 8ebc 0390 1a3a
000003d0: 0f78 2ebd 754f 023b ad71 0fbb 7cb6 8a3d
000003e0: 64fb 893a 9408 4b3d b892 633d f479 953c
000003f0: c1df 3abb 0037 873b ca6f 16bd fc8c 3a3d
0.017166737 -0.088280275 -0.06017171 -0.055199284 -0.020715943 -0.01230894 -0.026931401 -0.010554867
-0.026756492 -0.029159537 -0.051216513 -0.071812056 -0.04066792 -0.07637093 -0.017782044 -0.034858886
-0.03725879 -0.029176919 -0.06591646 -0.06609714 -0.03077285 0.026827805 0.048033655 -0.07196913
0.01967991 -0.002298877 -0.043507393 0.032533687 -0.024547743 -0.040360153 -0.030938338 -0.05122577
-0.06401678 0.072287604 -0.012765884 0.011990322 -0.0010316069 -0.034980137 -0.010449587 -0.080552906
-0.07071934 -0.0027375175 -0.03730406 -0.048243858 -0.043249592 -0.019716104 -0.025421036 0.018160231
-0.047826167 0.03506578 0.00384236 -0.050700057 -0.04855875 -0.026991628 -0.0598256 0.026173903
-0.018004537 -0.09897892 -0.027690846 0.015252315 0.0089650955 -0.11886643 -0.062090054 -0.014207899
0.007968817 0.041298196 -0.0370766 -0.008027432 -0.0416335 -0.04646699 -0.06996761 0.007867643
0.009497116 0.051954705 0.011979876 -0.047942847 0.012687058 -0.022442244 0.0727007 0.105277024
-0.012271507 -0.032429196 0.087728776 -0.067591354 -0.0666126 0.026457464 0.0374855 -0.002758179
-0.057477605 -0.010677694 -0.00032595044 0.06932943 -0.016629681 -0.054617908 -0.09354613 -0.11799793
0.031844813 -0.0484823 -0.02275951 0.0089048715 -0.0020695105 -0.07541547 -0.059178 -0.041513197
-0.0028601862 0.0021462769 -0.0012802382 -0.0028596967 -0.017654324 -0.030803435 -0.042307224 -0.07295339
-0.018285893 -0.07559018 -0.015319415 -0.026113695 -0.017099671 -0.03039283 -0.06359528 -0.054231737
-0.034135994 0.037215922 0.040999338 -0.06413243 0.009951677 0.0031764396 -0.043987535 0.03437642
-0.005434414 -0.04349689 -0.03108251 -0.05422703 -0.054780923 0.07618257 0.015046497 -0.0047553387
-0.00091754977 -0.009897349 -0.010834471 -0.07256703 -0.059488863 0.0024331487 -0.034985933 -0.052514218
-0.039993003 0.0049588517 -0.008570221 0.031362604 -0.055983342 0.036624648 0.017598948 -0.0317769
-0.04891676 -0.027924161 -0.0593254 0.029642029 -0.013141356 -0.08477252 -0.030665847 0.011526152
0.0009611083 -0.11086836 -0.053636137 -0.01960821 0.018157072 0.046496022 -0.033039458 0.0051459754
-0.02886859 -0.035955574 -0.058461297 0.013407037 0.020419106 0.056012835 0.013020708 -0.01841954
0.036193408 -0.025108732 0.0822065 0.10680515 -0.0035989857 -0.026707849 0.13138357 -0.0645723
-0.058264624 0.045925815 0.058142185 0.002128744 -0.053804394 -0.012298811 0.015235584 0.076153696
-0.020913752 -0.054478966 -0.06707348 -0.10693999 0.05700562 -0.031889312 -0.029748715 0.014396154
0.074014686 -0.06540503 -0.028024917 0.0101487 0.006374543 0.055855896 0.031930655 0.010505654
-0.010231728 0.020373544 0.017806064 -0.100196935 0.009680085 -0.0677167 -0.024254624 -0.014046146
-0.015462353 0.010366364 -0.11732675 -0.027179174 -0.023609959 0.04043468 0.10143938 -0.06458283
0.058882385 0.044038687 -0.006011155 0.08557586 0.01908772 -0.005227133 0.009936563 -0.031737994
-0.019991541 0.11346057 0.04623702 0.038659234 0.05463821 0.024778768 0.059810787 -0.0930395
-0.041383088 0.043205537 -0.017352728 0.0005896093 -0.042594966 0.0019883786 -0.0021887824 0.067730874
0.0010527191 0.049568728 0.055559844 0.018246628 -0.0028514715 0.0041264296 -0.036727704 0.04554461

Block7019_Output_0_initial_h f4 [1, 1, 100]
00000000: cdcc cc3d cdcc cc3d cdcc cc3d cdcc cc3d
00000010: cdcc cc3d cdcc cc3d cdcc cc3d cdcc cc3d
00000020: cdcc cc3d cdcc cc3d cdcc cc3d cdcc cc3d
00000030: cdcc cc3d cdcc cc3d cdcc cc3d cdcc cc3d
00000040: cdcc cc3d cdcc cc3d cdcc cc3d cdcc cc3d
00000050: cdcc cc3d cdcc cc3d cdcc cc3d cdcc cc3d
00000060: cdcc cc3d cdcc cc3d cdcc cc3d cdcc cc3d
00000070: cdcc cc3d cdcc cc3d cdcc cc3d cdcc cc3d
00000080: cdcc cc3d cdcc cc3d cdcc cc3d cdcc cc3d
00000090: cdcc cc3d cdcc cc3d cdcc cc3d cdcc cc3d
000000a0: cdcc cc3d cdcc cc3d cdcc cc3d cdcc cc3d
000000b0: cdcc cc3d cdcc cc3d cdcc cc3d cdcc cc3d
000000c0: cdcc cc3d cdcc cc3d cdcc cc3d cdcc cc3d
000000d0: cdcc cc3d cdcc cc3d cdcc cc3d cdcc cc3d
000000e0: cdcc cc3d cdcc cc3d cdcc cc3d cdcc cc3d
000000f0: cdcc cc3d cdcc cc3d cdcc cc3d cdcc cc3d
00000100: cdcc cc3d cdcc cc3d cdcc cc3d cdcc cc3d
00000110: cdcc cc3d cdcc cc3d cdcc cc3d cdcc cc3d
00000120: cdcc cc3d cdcc cc3d cdcc cc3d cdcc cc3d
00000130: cdcc cc3d cdcc cc3d cdcc cc3d cdcc cc3d
00000140: cdcc cc3d cdcc cc3d cdcc cc3d cdcc cc3d
00000150: cdcc cc3d cdcc cc3d cdcc cc3d cdcc cc3d
00000160: cdcc cc3d cdcc cc3d cdcc cc3d cdcc cc3d
00000170: cdcc cc3d cdcc cc3d cdcc cc3d cdcc cc3d
00000180: cdcc cc3d cdcc cc3d cdcc cc3d cdcc cc3d
0.1 0.1 0.1 0.1 0.1 0.1 0.1 0.1
0.1 0.1 0.1 0.1 0.1 0.1 0.1 0.1
0.1 0.1 0.1 0.1 0.1 0.1 0.1 0.1
0.1 0.1 0.1 0.1 0.1 0.1 0.1 0.1
0.1 0.1 0.1 0.1 0.1 0.1 0.1 0.1
0.1 0.1 0.1 0.1 0.1 0.1 0.1 0.1
0.1 0.1 0.1 0.1 0.1 0.1 0.1 0.1
0.1 0.1 0.1 0.1 0.1 0.1 0.1 0.1
0.1 0.1 0.1 0.1 0.1 0.1 0.1 0.1
0.1 0.1 0.1 0.1 0.1 0.1 0.1 0.1
0.1 0.1 0.1 0.1 0.1 0.1 0.1 0.1
0.1 0.1 0.1 0.1 0.1 0.1 0.1 0.1
0.1 0.1 0.1 0.1

Block7019_Output_1_initial_c f4 [1, 1, 100]
00000000: cdcc cc3d cdcc cc3d cdcc cc3d cdcc cc3d
00000010: cdcc cc3d cdcc cc3d cdcc cc3d cdcc cc3d
00000020: cdcc cc3d cdcc cc3d cdcc cc3d cdcc cc3d
00000030: cdcc cc3d cdcc cc3d cdcc cc3d cdcc cc3d
00000040: cdcc cc3d cdcc cc3d cdcc cc3d cdcc cc3d
00000050: cdcc cc3d cdcc cc3d cdcc cc3d cdcc cc3d
00000060: cdcc cc3d cdcc cc3d cdcc cc3d cdcc cc3d
00000070: cdcc cc3d cdcc cc3d cdcc cc3d cdcc cc3d
00000080: cdcc cc3d cdcc cc3d cdcc cc3d cdcc cc3d
00000090: cdcc cc3d cdcc cc3d cdcc cc3d cdcc cc3d
000000a0: cdcc cc3d cdcc cc3d cdcc cc3d cdcc cc3d
000000b0: cdcc cc3d cdcc cc3d cdcc cc3d cdcc cc3d
000000c0: cdcc cc3d cdcc cc3d cdcc cc3d cdcc cc3d
000000d0: cdcc cc3d cdcc cc3d cdcc cc3d cdcc cc3d
000000e0: cdcc cc3d cdcc cc3d cdcc cc3d cdcc cc3d
000000f0: cdcc cc3d cdcc cc3d cdcc cc3d cdcc cc3d
00000100: cdcc cc3d cdcc cc3d cdcc cc3d cdcc cc3d
00000110: cdcc cc3d cdcc cc3d cdcc cc3d cdcc cc3d
00000120: cdcc cc3d cdcc cc3d cdcc cc3d cdcc cc3d
00000130: cdcc cc3d cdcc cc3d cdcc cc3d cdcc cc3d
00000140: cdcc cc3d cdcc cc3d cdcc cc3d cdcc cc3d
00000150: cdcc cc3d cdcc cc3d cdcc cc3d cdcc cc3d
00000160: cdcc cc3d cdcc cc3d cdcc cc3d cdcc cc3d
00000170: cdcc cc3d cdcc cc3d cdcc cc3d cdcc cc3d
00000180: cdcc cc3d cdcc cc3d cdcc cc3d cdcc cc3d
0.1 0.1 0.1 0.1 0.1 0.1 0.1 0.1
0.1 0.1 0.1 0.1 0.1 0.1 0.1 0.1
0.1 0.1 0.1 0.1 0.1 0.1 0.1 0.1
0.1 0.1 0.1 0.1 0.1 0.1 0.1 0.1
0.1 0.1 0.1 0.1 0.1 0.1 0.1 0.1
0.1 0.1 0.1 0.1 0.1 0.1 0.1 0.1
0.1 0.1 0.1 0.1 0.1 0.1 0.1 0.1
0.1 0.1 0.1 0.1 0.1 0.1 0.1 0.1
0.1 0.1 0.1 0.1 0.1 0.1 0.1 0.1
0.1 0.1 0.1 0.1 0.1 0.1 0.1 0.1
0.1 0.1 0.1 0.1 0.1 0.1 0.1 0.1
0.1 0.1 0.1 0.1 0.1 0.1 0.1 0.1
0.1 0.1 0.1 0.1

E f4 [24, 24]
00000000: 7078 81be 7f03 7bbe af4c dc3c 6503 c5be
00000010: 6bb3 c2bd 596c 913e 2f0d 23bd 05f7 8fbe
00000020: 7fc7 703d c787 ac3d 1916 85be 4ca7 553d
00000030: 060e 4a3e 6649 47bd 7c48 1bbd 4c1a 21be
00000040: b64e 3dbe b317 1b3e e939 62bd 491f 1bbe
00000050: 7aa2 28be c66e 2b3d 25eb e3bb 6923 1fbe
00000060: 93d9 4ebd 9ae5 96be 398b 8cbe 88ef afbe
00000070: ee5d 403e c382 6d3d 4277 263e d368 56bd
00000080: 323c 9a3d 5ada 38be 2853 42be db0f 813d
00000090: 0fad 843e e2db 71bc 9075 a8be e1da 16be
000000a0: 1903 8a3e 19d4 a63c df22 45bc c5ee b0be
000000b0: 9716 9b3a 623e a13e abfb a23d 405c a33e
000000c0: 0264 d03e 474e bcbe 0361 cc3e fbba f03c
000000d0: e242 1a3e 83db a73d 943b dcbe 86d0 2b3d
000000e0: 4c08 6dbe 3886 bfbe 0cb5 9dbe aea0 dcbe
000000f0: abdb 9dbe b398 04be 1420 abbe 7875 8dbe
00000100: 09cc 443e 3d22 e8bd cfe0 593e 1e67 e8be
00000110: 26c1 943e 6e01 903d 43f8 cb3d bf4f e23e
00000120: f704 5c3e 3e35 3ebe 195e aabc 0ff6 b73e
00000130: 441f 813e 2bc7 d6bd 6cd8 93bd 36ba 1d3e
00000140: 559d 5a3e 6732 413d 1800 30be 241a 36bd
00000150: 2284 633e 75f5 ce3e 9617 233c b47a 61be
00000160: d7e2 e3be e18a bfbe 6c4b 00be 81e3 8ebb
00000170: 51fa b23e 2ceb 53be 93ba c9be 698d b03e
00000180: 341f 8dbd 729b ad3e c659 ba3e 6674 05ba
00000190: bd1a 953d 3833 813e 86bd 233e 55ff 9bbe
000001a0: 0eef b53e 5485 23be 418e ad3e 3231 9bbe
000001b0: 569b 10be 4f4d 8fbc a13e 4d3e b5fd 013e
000001c0: 3184 803d f225 8ebe 9393 a6be ae12 3abe
000001d0: f778 063e 8fb5 2dbe 8f6b 273c 033c db3d
000001e0: cade 3c3e c3a8 4bbe 0141 42be c81c 4c3e
000001f0: c24c 873e 75ab 9ebe ad00 fc3d 39f9 6c3d
00000200: fb30 adbd 1000 06be 61ee 00bd 2d33 0bbe
00000210: 1f41 17bb a0a2 62be 52af 3cbe 551b c9bd
00000220: 74eb a8be 1318 2e3e a9f4 473e 8104 683e
00000230: f053 8abe 5602 da3d a4a3 d83d 7a36 99be
00000240: 9128 9d3e d77f 153e 02b4 6f3e f0b5 d9bd
00000250: f874 a4be 8b88 e73b d416 1e3d b073 f9bd
00000260: 7b01 0abe f7cb c93d 7711 40be 7cbb bc3c
00000270: be5e 563d 13fc f43d fc46 8fbe eb04 3d3d
00000280: fb57 b3bd 0890 5abd 4dfc 8ebe 9a13 0dbe
00000290: 49ae 94be 4a77 86be fd9d 8b3e c66a 99b9
000002a0: 6a08 32be 2fc4 573e ce96 1abe 1667 1dbe
000002b0: 6d08 e53d fcd3 483e d6cc 8bbd 9fd0 3b3d
000002c0: 3e8a 1f3d c127 8fbe f6ea 02be 3519 173c
000002d0: b4f5 a8bc 8a15 773e 2327 2c3d eb3f 833c
000002e0: 8b92 34bd a8f0 30be c92d 7bbe b015 fbbd
000002f0: 4f4c b43e 40b0 cb3e 4b35 74be 230d 843d
00000300: 019f 2b3e 7ad9 35be a5b9 babe 5a9a 3d3e
00000310: 45c0 083e 9d1e 6f3b 17e7 3d3d 71a4 bdbe
00000320: 9f38 45be b7cf 2f3e 2008 81be fdc9 403e
00000330: cbb1 d4be deda 2ebe 0e90 4ebe 3688 953e
00000340: 72ed 6e3d 93d5 e03e 0b7f c63e 4cd8 b8be
00000350: 3471 643d efe5 ccbd 9bea c3b9 b3fe 173e
00000360: b0ff 71be 9b1b d83b e9c6 e23d 5008 26be
00000370: e2cc 1cbd f849 93be 5ddd 843c 1099 ef3d
00000380: a4d1 ca3d fb2d 92bd f9f3 003d 12bb 37be
00000390: 93cc 983e eebb 3cbe 1fb1 273e d8cf 033e
000003a0: eed9 a13e 3429 aa3e 9d31 2c3e 9918 f83d
000003b0: 2e0b a8bd 5d2f 2cbd 87ca b6bd ab3f d73d
000003c0: 83bf 463d a14e 8c3e e71e 7ebd c72e a73d
000003d0: 8cdf 23be 9036 d6bc fbfb 6ebe 2e63 c5bd
000003e0: 4f92 c13e 090b e23c 0d42 283e 6b5a 0abe
000003f0: 4f6b 19be 3606 cebe 02e4 aebd c4a8 7ebe
-0.252872 -0.24513052 0.026892034 -0.38479152 -0.095068775 0.28402975 -0.039807495 -0.28118148
0.058784004 0.08424335 -0.25993422 0.0521615 0.19731912 -0.048653983 -0.037910923 -0.15732688
-0.18487057 0.1514576 -0.05523101 -0.15148653 -0.1646823 0.04185369 -0.0069555216 -0.15540852
-0.050500464 -0.29472047 -0.27449968 -0.34362435 0.18785831 0.057986032 0.16256431 -0.052346062
0.075310126 -0.18052045 -0.18977034 0.06301852 0.25913283 -0.014761897 -0.32902193 -0.14731933
0.26955488 0.020364808 -0.01203224 -0.34557167 0.0011832294 0.31492907 0.07958158 0.3190632
0.407013 -0.3677847 0.39917764 0.029386034 0.15064576 0.081961654 -0.43014205 0.04194691
-0.23147696 -0.37407088 -0.3080219 -0.4309134 -0.30831656 -0.12948875 -0.3342291 -0.27628684
0.19218458 -0.113346554 0.21277164 -0.45391172 0.2905361 0.07031523 0.099594615 0.44201466
0.21486269 -0.18574998 -0.020796822 0.35929915 0.25219166 -0.10487207 -0.072190136 0.15403065
0.2134908 0.047167208 -0.17187536 -0.044458523 0.22218373 0.40421644 0.009954354 -0.22019464
-0.44509003 -0.37410644 -0.12528771 -0.0043606167 0.349566 -0.2069518 -0.39400157 0.34482887
-0.06890717 0.33907658 0.36396617 -0.0005090892 0.072804905 0.2523439 0.15990266 -0.3046824
0.35533947 -0.1596883 0.33897594 -0.3031097 -0.14121756 -0.017492918 0.20043422 0.12694438
0.062752135 -0.27763325 -0.32534465 -0.18171188 0.13132082 -0.1696379 0.010218515 0.10704806
0.18444362 -0.19888596 -0.1897011 0.19932854 0.2642575 -0.30990186 0.123048164 0.057854865
-0.08456608 -0.13085961 -0.031477336 -0.13593741 -0.0023079587 -0.22132349 -0.18426254 -0.09819666
-0.32992136 0.17001371 0.19526924 0.22657968 -0.27017164 0.10644977 0.10578087 -0.29924375
0.30695012 0.14599548 0.23408511 -0.10630405 -0.3212049 0.0070658377 0.03859599 -0.12180269
-0.13477127 0.09853356 -0.18756662 0.023038618 0.052336447 0.11962142 -0.27983844 0.04614727
-0.08757015 -0.053360015 -0.27926865 -0.13777009 -0.2903922 -0.26262885 0.27268973 -0.00029261986
-0.17386022 0.21070932 -0.1509659 -0.15371355 0.11183248 0.19612116 -0.06826179 0.045853253
0.038950197 -0.27960017 -0.12784943 0.009222318 -0.020624973 0.2412931 0.04202951 0.01602169
-0.044085067 -0.17279303 -0.24529184 -0.12259996 0.3521447 0.39782906 -0.23848455 0.06447818
0.16759874 -0.17758742 -0.3646976 0.18515912 0.13354595 0.0036486753 0.046362963 -0.3703952
-0.1925988 0.1716908 -0.2520151 0.18827052 -0.41541895 -0.17075679 -0.2017214 0.29205483
0.058331914 0.43912944 0.387688 -0.3610252 0.05577202 -0.10004794 -0.00037368093 0.14843254
-0.23632693 0.0065950877 0.11073095 -0.16214108 -0.03828133 -0.2876737 0.016218835 0.11699116
0.09903267 -0.07137676 0.03148267 -0.17942455 0.29843578 -0.18431064 0.1637616 0.12872255
0.3161158 0.3323456 0.16815801 0.12114067 -0.08205257 -0.042037357 -0.08925348 0.105101906
0.048522484 0.2740374 -0.06204119 0.08163219 -0.16003245 -0.026149064 -0.2333831 -0.09638058
0.37806937 0.027593153 0.16431446 -0.13511054 -0.14982341 -0.40239114 -0.08539583 -0.24869066

Parameter4210 f4 [1, 800]
00000000: b638 68bd 0818 16bd a01b babd 3584 43bd
00000010: 2df3 0cbb 486c 353c 907b 2cbd 2a44 61bd
00000020: 6472 2cbd 8238 d8bb 7175 5e3d 2dfe aebd
00000030: bba6 7abd 5530 f7bc 7f60 a53d bd47 48bd
00000040: 9d82 87bd b588 9fbd e27c e93d 6004 18bd
00000050: 808c cdbc 5108 fbbc 1f99 5dbd b47c f5bc
00000060: ee11 6d3c 0385 fc3c a253 8b3c 70fd 5abc
00000070: d6d6 123c a66d 8fbd 0f85 bbbd e168 48ba
00000080: c734 5dbd 6233 b4bc eb4e 6b3c cf14 aabd
00000090: 7a39 1cbc e955 04be a448 34bd 27b9 39bd
000000a0: 4704 d4bb 1b98 83bc 94b2 1abb 48db 283d
000000b0: ae9d a3bc 7c31 5f3d ca6b 57bc f5d8 693d
000000c0: 237d 73bd 525e b1bd 3f3e 95bc 25cd 4dbc
000000d0: c222 b83b 9a4c 96bc 9dcf e5bc db36 80bc
000000e0: 6eb8 bfbd 32e4 4fbd 626f a1bc 0db1 b23c
000000f0: 4172 07be 3440 45bd bfa3 0c3c d54d 70bd
00000100: 9f1b 403b 76d9 a3bc 331e 56bd fb66 11bd
00000110: 8103 4cbd 9b4d 3c3c 60c6 11bd 6566 26bd
00000120: 7205 4e3c e1cd ab3a 0006 95bd 41e2 86bd
00000130: 4c63 59bd 03d7 303c de88 96bd b48c 29bd
00000140: f62c 0a3c e638 70bd 15ce d73a 4d23 333d
00000150: cc18 9b3d 2c37 7dbd 1fc3 77bc c051 3dbd
00000160: c757 cd3c 6795 973d ca83 093d ed6e e03b
00000170: 1ef9 b93d cb90 1bbd 8993 1ebc 399e 31bd
00000180: 22a7 2dbd bc2d 96bc 11e4 0bbc 1ce0 6abb
00000190: 6809 d4bc a85a 0dbd 9489 abbd d231 20bd
000001a0: 6e9a d03a e0bc a43c c810 76bc 6ecb 23bd
000001b0: f52c 06bc e151 263c 5571 a73d 98a1 aabd
000001c0: 9d6f 6cbd b55b ddbc 8d10 a93d 279e 5dbd
000001d0: 399b 8bbd bdd6 a9bd 0475 fc3d 9c1b 873c
000001e0: f4a2 94bc c676 bfbc 6eaf 72bd b613 9cbc
000001f0: 5e21 c73c f857 093d 3b92 7b3c 218f 27bc
00000200: c585 913b 1ff2 7ebd 929c 9fbd 1f2d 113a
00000210: 80a5 74bd c7bc 8ebc ba27 083d 1633 97bd
00000220: 23b5 84bc beb0 c4bd 3762 39bd c6f3 47bd
00000230: 5d81 853c e255 e8bb d053 553c 91bd 333d
00000240: 6b57 3ebb 4a6e 6f3d 6372 6cbb 001d 6a3d
00000250: e003 47bd ad68 93bd 14ed 23bc 3df0 14bc
00000260: abf1 d43b ee51 a4bc 2113 e1bb a0b9 71bc
00000270: e6d6 9fbd f6e1 20bd ef65 74bc 20fa 033d
00000280: 2de5 f6bd 28ce 48bd 3149 883c 654f 43bd
00000290: 6a06 673c 5ed6 c0bc 7b4c 4ebd c8b7 e3bc
000002a0: 3e5e 58bd 0616 1a3c e109 ecbc b43c 14bd
000002b0: ccd7 cd3c 798e 8a3b ef33 86bd 1cdc 11bd
000002c0: 0175 6abd 91f7 b43c 178c 58bd 6167 03bd
000002d0: 606e a23b fd4f 6dbd f8c0 753c 3f68 383d
000002e0: be2b 983d 938c 63bd ccb5 40bc be8d 26bd
000002f0: f632 043d 6cb5 8c3d a2b0 ea3c afb5 193c
00000300: fc4d d33d 6b5d e8bc d7bb f8bb 5fe6 9dbc
00000310: 3d73 28bd fa4f 3fbb 291b 9b3a e945 03bc
00000320: 3073 303d e741 49bb 59ab 8aba 16fb ce3c
00000330: 1472 423d f14a db3d 497f 343d 19d4 163c
00000340: dc54 033d dfff 973d 4330 063e 169d 4bbd
00000350: 14cd 2bbc 2eba 073d cd86 353e 47cb 14bd
00000360: b59f c7bc 4a58 27bc 5089 633e e7f3 de3c
00000370: 6d00 033d 34f0 663d 63fc 43bc f44d cd3c
00000380: f3b4 c43d 6384 bb3d ac2b 4d3d f23e 473d
00000390: efd5 383d 9eb4 913a 1f54 90bc bd7a 303d
000003a0: 4895 20bc 0e29 2e3d 0a1b 903d 9da5 19bc
000003b0: 112a 533d db7f 4cbd 2d62 ebba fe72 adbb
000003c0: 82a2 6e3d e23f 4a3d b418 a33d 8a56 f13d
000003d0: 9cba cc3c 0928 123e 8856 503d b1f4 033e
000003e0: 28ec 01bd d4df d8bc d45e 2d3d 44b1 4d3d
000003f0: a44e 823d 725d 833c 0e47 573d ed27 2d3c
-0.05669471 -0.03664401 -0.090873 -0.047733504 -0.0021507249 0.01107318 -0.042110026 -0.054996647
-0.04210128 -0.006598533 0.05431122 -0.08544574 -0.061194163 -0.030174414 0.08075046 -0.04889654
-0.066167094 -0.07789747 0.11400773 -0.037113547 -0.02509141 -0.030643614 -0.054101106 -0.02996669
0.014469607 0.030825144 0.017007653 -0.013366088 0.008962354 -0.07003336 -0.09156238 -0.00076450227
-0.05400541 -0.021997157 0.014362077 -0.0830475 -0.009535188 -0.12923397 -0.044014588 -0.04534259
-0.0064702365 -0.01606374 -0.0023604976 0.041224748 -0.019972648 0.05449055 -0.0131482575 0.057091672
-0.05944551 -0.08660568 -0.018218158 -0.012561117 0.005619378 -0.018347073 -0.0280531 -0.015651157
-0.09361349 -0.050754733 -0.019706432 0.02181294 -0.13227178 -0.048156932 0.008583962 -0.058667976
0.0029313338 -0.020001154 -0.052274894 -0.0354986 -0.04980803 0.011493112 -0.035589576 -0.040624995
0.01257454 0.0013107621 -0.07276535 -0.06586123 -0.053073213 0.01079345 -0.07350324 -0.04139395
0.008433571 -0.058648013 0.0016464615 0.043734837 0.07573089 -0.061820194 -0.015122204 -0.04622054
0.02506627 0.07401543 0.03357295 0.006849161 0.090807185 -0.037979882 -0.00967873 -0.043363784
-0.04239572 -0.018332355 -0.008538262 -0.0035839146 -0.025883391 -0.034510285 -0.0837585 -0.039110012
0.0015915164 0.020109594 -0.015018649 -0.039988928 -0.0081894295 0.010151357 0.08175913 -0.08331603
-0.05772363 -0.027021268 0.0825511 -0.054105904 -0.06816716 -0.08292911 0.123270065 0.016492657
-0.018144108 -0.023372065 -0.059249334 -0.019052368 0.024307903 0.03353116 0.015354688 -0.010226996
0.0044409954 -0.062242623 -0.07793535 0.00055380346 -0.059728146 -0.017424 0.03324101 -0.07382791
-0.016199654 -0.096040234 -0.04525968 -0.048816465 0.016297037 -0.007090316 0.013020471 0.043881956
-0.0029043804 0.05845479 -0.0036078922 0.057156563 -0.04858768 -0.071977 -0.010005254 -0.00909048
0.0064985356 -0.020058598 -0.0068687354 -0.014753729 -0.078046605 -0.039277993 -0.014916881 0.03222096
-0.120554306 -0.04902473 0.016636463 -0.04768314 0.01410065 -0.023539718 -0.050365906 -0.027797595
-0.05282425 0.009404665 -0.028813304 -0.036190704 0.025127314 0.00422841 -0.06552874 -0.035610303
-0.05724049 0.022090705 -0.052867975 -0.03208101 0.0049570054 -0.05793761 0.014999621 0.04502129
0.07430218 -0.055553984 -0.011762094 -0.04066252 0.032275163 0.06870541 0.028648678 0.009381696
0.10317609 -0.028364858 -0.0075907516 -0.019274889 -0.041125525 -0.0029191957 0.0011833656 -0.008012273
0.0430786 -0.0030709447 -0.001057963 0.025266211 0.047472075 0.10707653 0.0440667 0.009205841
0.03206335 0.074218504 0.13104348 -0.049710356 -0.010485906 0.03313654 0.17727204 -0.036326673
-0.024368146 -0.010213921 0.2222035 0.027215911 0.031982828 0.05638142 -0.011962029 0.025061585
0.09604826 0.0915611 0.050090477 0.048644014 0.045125898 0.001111645 -0.017618237 0.043085802
-0.009801216 0.04251962 0.07036407 -0.009377864 0.05155379 -0.04992662 -0.0017958336 -0.005293249
0.05826045 0.04937733 0.07963696 0.11784084 0.024991326 0.14273085 0.050863773 0.12886311
-0.031719357 -0.026473917 0.042326763 0.05021788 0.06362656 0.01603577 0.052557997 0.010568601

Block7107_Output_0_initial_h f4 [1, 1, 100]
00000000: cdcc cc3d cdcc cc3d cdcc cc3d cdcc cc3d
00000010: cdcc cc3d cdcc cc3d cdcc cc3d cdcc cc3d
00000020: cdcc cc3d cdcc cc3d cdcc cc3d cdcc cc3d
00000030: cdcc cc3d cdcc cc3d cdcc cc3d cdcc cc3d
00000040: cdcc cc3d cdcc cc3d cdcc cc3d cdcc cc3d
00000050: cdcc cc3d cdcc cc3d cdcc cc3d cdcc cc3d
00000060: cdcc cc3d cdcc cc3d cdcc cc3d cdcc cc3d
00000070: cdcc cc3d cdcc cc3d cdcc cc3d cdcc cc3d
00000080: cdcc cc3d cdcc cc3d cdcc cc3d cdcc cc3d
00000090: cdcc cc3d cdcc cc3d cdcc cc3d cdcc cc3d
000000a0: cdcc cc3d cdcc cc3d cdcc cc3d cdcc cc3d
000000b0: cdcc cc3d cdcc cc3d cdcc cc3d cdcc cc3d
000000c0: cdcc cc3d cdcc cc3d cdcc cc3d cdcc cc3d
000000d0: cdcc cc3d cdcc cc3d cdcc cc3d cdcc cc3d
000000e0: cdcc cc3d cdcc cc3d cdcc cc3d cdcc cc3d
000000f0: cdcc cc3d cdcc cc3d cdcc cc3d cdcc cc3d
00000100: cdcc cc3d cdcc cc3d cdcc cc3d cdcc cc3d
00000110: cdcc cc3d cdcc cc3d cdcc cc3d cdcc cc3d
00000120: cdcc cc3d cdcc cc3d cdcc cc3d cdcc cc3d
00000130: cdcc cc3d cdcc cc3d cdcc cc3d cdcc cc3d
00000140: cdcc cc3d cdcc cc3d cdcc cc3d cdcc cc3d
00000150: cdcc cc3d cdcc cc3d cdcc cc3d cdcc cc3d
00000160: cdcc cc3d cdcc cc3d cdcc cc3d cdcc cc3d
00000170: cdcc cc3d cdcc cc3d cdcc cc3d cdcc cc3d
00000180: cdcc cc3d cdcc cc3d cdcc cc3d cdcc cc3d
0.1 0.1 0.1 0.1 0.1 0.1 0.1 0.1
0.1 0.1 0.1 0.1 0.1 0.1 0.1 0.1
0.1 0.1 0.1 0.1 0.1 0.1 0.1 0.1
0.1 0.1 0.1 0.1 0.1 0.1 0.1 0.1
0.1 0.1 0.1 0.1 0.1 0.1 0.1 0.1
0.1 0.1 0.1 0.1 0.1 0.1 0.1 0.1
0.1 0.1 0.1 0.1 0.1 0.1 0.1 0.1
0.1 0.1 0.1 0.1 0.1 0.1 0.1 0.1
0.1 0.1 0.1 0.1 0.1 0.1 0.1 0.1
0.1 0.1 0.1 0.1 0.1 0.1 0.1 0.1
0.1 0.1 0.1 0.1 0.1 0.1 0.1 0.1
0.1 0.1 0.1 0.1 0.1 0.1 0.1 0.1
0.1 0.1 0.1 0.1

Block7107_Output_1_initial_c f4 [1, 1, 100]
00000000: cdcc cc3d cdcc cc3d cdcc cc3d cdcc cc3d
00000010: cdcc cc3d cdcc cc3d cdcc cc3d cdcc cc3d
00000020: cdcc cc3d cdcc cc3d cdcc cc3d cdcc cc3d
00000030: cdcc cc3d cdcc cc3d cdcc cc3d cdcc cc3d
00000040: cdcc cc3d cdcc cc3d cdcc cc3d cdcc cc3d
00000050: cdcc cc3d cdcc cc3d cdcc cc3d cdcc cc3d
00000060: cdcc cc3d cdcc cc3d cdcc cc3d cdcc cc3d
00000070: cdcc cc3d cdcc cc3d cdcc cc3d cdcc cc3d
00000080: cdcc cc3d cdcc cc3d cdcc cc3d cdcc cc3d
00000090: cdcc cc3d cdcc cc3d cdcc cc3d cdcc cc3d
000000a0: cdcc cc3d cdcc cc3d cdcc cc3d cdcc cc3d
000000b0: cdcc cc3d cdcc cc3d cdcc cc3d cdcc cc3d
000000c0: cdcc cc3d cdcc cc3d cdcc cc3d cdcc cc3d
000000d0: cdcc cc3d cdcc cc3d cdcc cc3d cdcc cc3d
000000e0: cdcc cc3d cdcc cc3d cdcc cc3d cdcc cc3d
000000f0: cdcc cc3d cdcc cc3d cdcc cc3d cdcc cc3d
00000100: cdcc cc3d cdcc cc3d cdcc cc3d cdcc cc3d
00000110: cdcc cc3d cdcc cc3d cdcc cc3d cdcc cc3d
00000120: cdcc cc3d cdcc cc3d cdcc cc3d cdcc cc3d
00000130: cdcc cc3d cdcc cc3d cdcc cc3d cdcc cc3d
00000140: cdcc cc3d cdcc cc3d cdcc cc3d cdcc cc3d
00000150: cdcc cc3d cdcc cc3d cdcc cc3d cdcc cc3d
00000160: cdcc cc3d cdcc cc3d cdcc cc3d cdcc cc3d
00000170: cdcc cc3d cdcc cc3d cdcc cc3d cdcc cc3d
00000180: cdcc cc3d cdcc cc3d cdcc cc3d cdcc cc3d
0.1 0.1 0.1 0.1 0.1 0.1 0.1 0.1
0.1 0.1 0.1 0.1 0.1 0.1 0.1 0.1
0.1 0.1 0.1 0.1 0.1 0.1 0.1 0.1
0.1 0.1 0.1 0.1 0.1 0.1 0.1 0.1
0.1 0.1 0.1 0.1 0.1 0.1 0.1 0.1
0.1 0.1 0.1 0.1 0.1 0.1 0.1 0.1
0.1 0.1 0.1 0.1 0.1 0.1 0.1 0.1
0.1 0.1 0.1 0.1 0.1 0.1 0.1 0.1
0.1 0.1 0.1 0.1 0.1 0.1 0.1 0.1
0.1 0.1 0.1 0.1 0.1 0.1 0.1 0.1
0.1 0.1 0.1 0.1 0.1 0.1 0.1 0.1
0.1 0.1 0.1 0.1 0.1 0.1 0.1 0.1
0.1 0.1 0.1 0.1

Parameter5376 f4 [1, 800]
00000000: de99 dcbc 1142 32bd ae66 dcbc edb0 00bd
00000010: 5640 94bc b36b 7abd 3b98 ebbc bc25 78bd
00000020: 7fba 9bbc 7d2d 82bd b65f 80bc ec32 9bbd
00000030: 1f0f d5bd 2ad3 9fbd 2227 0bbd 8e5c 8bbb
00000040: 1967 9dbd e6b0 c2bd 37d5 a8bd 8dde afbc
00000050: d5c7 92bc 594b b8bd af94 c9bc edaa 8dbd
00000060: 4954 0fbd 50e5 abbc 9456 7abd 8dff 62bd
00000070: 7649 da3a 8a92 dd3c de4d edbd c196 92bc
00000080: 8a48 9bbd ed67 dfbc c3cd 02be 2d7e 73bc
00000090: e7c8 aebc 097b 53bd d71f 82bd d836 b13c
000000a0: 20ff 9bbc 6829 bf3c 0c22 90bd 6384 03bd
000000b0: 79cd 95bd 0ea1 99bc 7b84 23bd eec4 a4bd
000000c0: 6fc8 51bd f69a 6bbc 43d9 bbbc 3239 0ebd
000000d0: fb4f e4bd 1712 0ebd 7b23 8ebd d35d 393d
000000e0: 6b2a 833c 3553 12bd 66ef ccbd 860a a4bd
000000f0: c869 fc3b fa67 8ebd 2e72 bebc 3f6f 00bd
00000100: 4e02 71bd b5b0 4cbd 7350 d3bc 767d e5bc
00000110: 2a3d c0bc 634e 94bd 23b3 d5bd eaf3 c0bd
00000120: 5a52 1bbc bf89 1e3c cd32 6ebd eba2 98bd
00000130: 9a5d b739 10ab b43c 8257 a0bd cc50 b13c
00000140: 7eaa 9dbd f387 60bd dcf9 fa3d 531f 8e3d
00000150: ac7c 1dbd 3265 38bd a27d cb3c aa19 a5bd
00000160: a525 1ebd 2e4f 8bba fa53 66bc e097 60bd
00000170: bcea 89bd e168 a4bc 585f 183d 2ef4 c8bd
00000180: a609 2bbd 40b1 0abd 9f95 5abd 740f 3cbc
00000190: 3ae4 adbc 4dac 02bd 4522 cfbc 113f 26bc
000001a0: 002b cdbb d2a8 67bd e116 1cbc cb78 47bd
000001b0: c059 4fbc 6238 70bd af05 60bc c942 5ebd
000001c0: f590 a5bd a92a 83bd 905b d8bc 3765 9e3b
000001d0: 340f 8bbd 4a3a 81bd 75fa 8bbd 7a2f 8abc
000001e0: e7bb c538 72a0 8fbd 8677 b2bc d31c 34bd
000001f0: 0199 09bd 5cce 2f3c ee99 45bd a456 eebc
00000200: fe1d 143c c6dd df3c e873 b3bd 26ee 92bc
00000210: 8bb0 90bd 9f40 c3bc 6071 cfbd 7785 2d3c
00000220: 7c1d d0bb a62a 64bd 55d0 8abd edbe b83c
00000230: 3f08 12bc c047 3a3d 583e 84bd f199 a5bc
00000240: 2d09 76bd fe73 1fbb e7e4 02bd eef7 6bbd
00000250: 3e49 e8bc b91a c93c 90a4 bebb f85d c0bc
00000260: 3078 83bd 0fa5 1fbd 7782 58bd 8a9f 1f3d
00000270: 37e2 5f3c d373 ccbc 8131 bebd 65f1 76bd
00000280: d984 7d3c 7cf2 3ebd 09dd 86bc d88f 533c
00000290: a91a 29bd 1c50 39bd 729d 80bc 93ae b13c
000002a0: 6288 8dbc 59c3 0bbd 9648 5ebd a359 95bd
000002b0: cf53 85bc d360 bdbb fa86 11bd cd02 78bd
000002c0: ba96 9c3d a7d1 6c3d 40c3 3bbd 0962 b03c
000002d0: 2c43 11bd f1b4 67bd df96 0c3e bd1d e73d
000002e0: 8821 03bd f9a8 67bc d228 013d 7b6a 73bd
000002f0: 18a4 dbbc c769 cf3b 80e7 7ebc 6f9e cdbc
00000300: 363a 37bd d3e5 6bbc da5c 2a3d 41b2 e6bd
00000310: 1763 1cbc 6ade a5bc dbf6 3bbd 71c8 48ba
00000320: 11ab 483c 0a13 293d dc05 0f3d 07e9 d43c
00000330: 4b7d 213d 573e 87bc 90c5 363d 43d8 793c
00000340: aec4 dc3c 4921 613b 350d a93d 1edf 0d3d
00000350: affd 93bc 510f 0c3c 0426 463c 7bde 5a3d
00000360: 5b32 3b3c 96fa 563c ccea 29bb ab3b 073d
00000370: 81e3 df3d 88b1 a5bc 6356 513c 38d0 353c
00000380: 99fd 0b3c aa74 8a3d 7dbd 1b3d 4a1d e43d
00000390: e965 5a3d 9572 a33d e25d b5bc 4d28 c53d
000003a0: 774e cdbc 3972 c43c eb3a 25bd 8b76 f83c
000003b0: c6dd 003d 43c3 693c 76f0 8ebc e702 a93d
000003c0: 7b25 363d b1c0 103e 420d 35bb c6c7 a73c
000003d0: 37ab db3c 85a9 ea3d cf92 8a3d 74de 6b3b
000003e0: db6c 113c 20a7 823d 3dc7 e03c 10f9 ae3c
000003f0: 64bd 453d eb11 053d 138a 5ebc fa70 c63d
-0.026928838 -0.043520037 -0.02690443 -0.03141873 -0.018097084 -0.061137866 -0.028759113 -0.06058286
-0.019009827 -0.063563325 -0.015670639 -0.07578072 -0.10403275 -0.07803948 -0.033972867 -0.0042529767
-0.0768568 -0.09506397 -0.082437925 -0.021468425 -0.017917553 -0.089987464 -0.02460703 -0.06917367
-0.03499249 -0.020983368 -0.061117724 -0.055419493 0.0016653973 0.027047414 -0.115871176 -0.01789415
-0.07582195 -0.027271235 -0.12773804 -0.014861626 -0.021336032 -0.051631007 -0.06353729 0.021632597
-0.019042552 0.023335174 -0.07037744 -0.032108676 -0.073145814 -0.018753555 -0.039921265 -0.08045374
-0.05121654 -0.014380207 -0.022930747 -0.034722514 -0.111480676 -0.03468522 -0.06940361 0.045255493
0.016011437 -0.035723884 -0.10006599 -0.0800982 0.00770304 -0.06953426 -0.023247804 -0.031356093
-0.05884009 -0.04997321 -0.025795197 -0.028013926 -0.023466665 -0.072415136 -0.10434558 -0.09421523
-0.009480083 0.009676396 -0.058153916 -0.07452949 0.0003497422 0.022054225 -0.07829191 0.021644972
-0.076985344 -0.05481715 0.12254688 0.06939568 -0.038448974 -0.045018382 0.02484018 -0.08061536
-0.03861012 -0.0010628456 -0.0140581075 -0.05483234 -0.06734225 -0.020069541 0.037200302 -0.098121986
-0.04175725 -0.033860445 -0.053365346 -0.011478294 -0.021226991 -0.0319026 -0.025284896 -0.010146872
-0.0062612295 -0.056557484 -0.009526939 -0.04869918 -0.012655675 -0.05864752 -0.01367323 -0.05426291
-0.08084289 -0.06404621 -0.026410848 0.004833843 -0.06790009 -0.06309946 -0.0683488 -0.016868342
9.4286916e-05 -0.070130244 -0.021785509 -0.0439728 -0.03359318 0.010730352 -0.048242502 -0.029094048
0.009040354 0.02732743 -0.08762342 -0.017935824 -0.07064923 -0.023834525 -0.101290464 0.0105909025
-0.006351171 -0.055704735 -0.067780174 0.022551978 -0.008913099 0.045478582 -0.064572036 -0.020215007
-0.060067344 -0.0024330611 -0.03195658 -0.05760949 -0.028355237 0.024548875 -0.005817957 -0.023482308
-0.06419408 -0.03897577 -0.052858796 0.038970508 0.013664774 -0.024957573 -0.09286786 -0.060288806
0.015473568 -0.04661797 -0.01646282 0.012912713 -0.04128519 -0.045242414 -0.015700076 0.021689689
-0.017276946 -0.034121845 -0.054268442 -0.072924875 -0.016275315 -0.0057793646 -0.035529114 -0.060549546
0.07645936 0.057817128 -0.0458405 0.021531122 -0.03546445 -0.056569044 0.13729428 0.11284969
-0.0320144 -0.014139407 0.03153307 -0.05942772 -0.026811644 0.0063297483 -0.015558124 -0.025099961
-0.04473325 -0.014398056 0.041592456 -0.11264468 -0.009545109 -0.020247657 -0.045889717 -0.00076592626
0.012247817 0.041277923 0.034917697 0.025990022 0.03942613 -0.016509218 0.044622004 0.015249315
0.026949253 0.0034352115 0.08254472 0.03463661 -0.018065302 0.008548574 0.012094025 0.05343483
0.01142558 0.013121268 -0.0025927303 0.03301589 0.10932065 -0.020226255 0.012776944 0.0110970065
0.008544349 0.06760533 0.038022507 0.11138399 0.053319845 0.07980839 -0.022139493 0.096268274
-0.025061829 0.023980247 -0.04033939 0.030329963 0.0314615 0.014267745 -0.017448645 0.08252507
0.044469338 0.14136006 -0.002762631 0.020481002 0.02681504 0.114581145 0.06766283 0.0035990747
0.008876051 0.06379533 0.027438754 0.021358997 0.04827632 0.03248779 -0.013582724 0.09689517

Block7279_Output_0_initial_h f4 [1, 1, 100]
00000000: cdcc cc3d cdcc cc3d cdcc cc3d cdcc cc3d
00000010: cdcc cc3d cdcc cc3d cdcc cc3d cdcc cc3d
00000020: cdcc cc3d cdcc cc3d cdcc cc3d cdcc cc3d
00000030: cdcc cc3d cdcc cc3d cdcc cc3d cdcc cc3d
00000040: cdcc cc3d cdcc cc3d cdcc cc3d cdcc cc3d
00000050: cdcc cc3d cdcc cc3d cdcc cc3d cdcc cc3d
00000060: cdcc cc3d cdcc cc3d cdcc cc3d cdcc cc3d
00000070: cdcc cc3d cdcc cc3d cdcc cc3d cdcc cc3d
00000080: cdcc cc3d cdcc cc3d cdcc cc3d cdcc cc3d
00000090: cdcc cc3d cdcc cc3d cdcc cc3d cdcc cc3d
000000a0: cdcc cc3d cdcc cc3d cdcc cc3d cdcc cc3d
000000b0: cdcc cc3d cdcc cc3d cdcc cc3d cdcc cc3d
000000c0: cdcc cc3d cdcc cc3d cdcc cc3d cdcc cc3d
000000d0: cdcc cc3d cdcc cc3d cdcc cc3d cdcc cc3d
000000e0: cdcc cc3d cdcc cc3d cdcc cc3d cdcc cc3d
000000f0: cdcc cc3d cdcc cc3d cdcc cc3d cdcc cc3d
00000100: cdcc cc3d cdcc cc3d cdcc cc3d cdcc cc3d
00000110: cdcc cc3d cdcc cc3d cdcc cc3d cdcc cc3d
00000120: cdcc cc3d cdcc cc3d cdcc cc3d cdcc cc3d
00000130: cdcc cc3d cdcc cc3d cdcc cc3d cdcc cc3d
00000140: cdcc cc3d cdcc cc3d cdcc cc3d cdcc cc3d
00000150: cdcc cc3d cdcc cc3d cdcc cc3d cdcc cc3d
00000160: cdcc cc3d cdcc cc3d cdcc cc3d cdcc cc3d
00000170: cdcc cc3d cdcc cc3d cdcc cc3d cdcc cc3d
00000180: cdcc cc3d cdcc cc3d cdcc cc3d cdcc cc3d
0.1 0.1 0.1 0.1 0.1 0.1 0.1 0.1
0.1 0.1 0.1 0.1 0.1 0.1 0.1 0.1
0.1 0.1 0.1 0.1 0.1 0.1 0.1 0.1
0.1 0.1 0.1 0.1 0.1 0.1 0.1 0.1
0.1 0.1 0.1 0.1 0.1 0.1 0.1 0.1
0.1 0.1 0.1 0.1 0.1 0.1 0.1 0.1
0.1 0.1 0.1 0.1 0.1 0.1 0.1 0.1
0.1 0.1 0.1 0.1 0.1 0.1 0.1 0.1
0.1 0.1 0.1 0.1 0.1 0.1 0.1 0.1
0.1 0.1 0.1 0.1 0.1 0.1 0.1 0.1
0.1 0.1 0.1 0.1 0.1 0.1 0.1 0.1
0.1 0.1 0.1 0.1 0.1 0.1 0.1 0.1
0.1 0.1 0.1 0.1

Block7279_Output_1_initial_c f4 [1, 1, 100]
00000000: cdcc cc3d cdcc cc3d cdcc cc3d cdcc cc3d
00000010: cdcc cc3d cdcc cc3d cdcc cc3d cdcc cc3d
00000020: cdcc cc3d cdcc cc3d cdcc cc3d cdcc cc3d
00000030: cdcc cc3d cdcc cc3d cdcc cc3d cdcc cc3d
00000040: cdcc cc3d cdcc cc3d cdcc cc3d cdcc cc3d
00000050: cdcc cc3d cdcc cc3d cdcc cc3d cdcc cc3d
00000060: cdcc cc3d cdcc cc3d cdcc cc3d cdcc cc3d
00000070: cdcc cc3d cdcc cc3d cdcc cc3d cdcc cc3d
00000080: cdcc cc3d cdcc cc3d cdcc cc3d cdcc cc3d
00000090: cdcc cc3d cdcc cc3d cdcc cc3d cdcc cc3d
000000a0: cdcc cc3d cdcc cc3d cdcc cc3d cdcc cc3d
000000b0: cdcc cc3d cdcc cc3d cdcc cc3d cdcc cc3d
000000c0: cdcc cc3d cdcc cc3d cdcc cc3d cdcc cc3d
000000d0: cdcc cc3d cdcc cc3d cdcc cc3d cdcc cc3d
000000e0: cdcc cc3d cdcc cc3d cdcc cc3d cdcc cc3d
000000f0: cdcc cc3d cdcc cc3d cdcc cc3d cdcc cc3d
00000100: cdcc cc3d cdcc cc3d cdcc cc3d cdcc cc3d
00000110: cdcc cc3d cdcc cc3d cdcc cc3d cdcc cc3d
00000120: cdcc cc3d cdcc cc3d cdcc cc3d cdcc cc3d
00000130: cdcc cc3d cdcc cc3d cdcc cc3d cdcc cc3d
00000140: cdcc cc3d cdcc cc3d cdcc cc3d cdcc cc3d
00000150: cdcc cc3d cdcc cc3d cdcc cc3d cdcc cc3d
00000160: cdcc cc3d cdcc cc3d cdcc cc3d cdcc cc3d
00000170: cdcc cc3d cdcc cc3d cdcc cc3d cdcc cc3d
00000180: cdcc cc3d cdcc cc3d cdcc cc3d cdcc cc3d
0.1 0.1 0.1 0.1 0.1 0.1 0.1 0.1
0.1 0.1 0.1 0.1 0.1 0.1 0.1 0.1
0.1 0.1 0.1 0.1 0.1 0.1 0.1 0.1
0.1 0.1 0.1 0.1 0.1 0.1 0.1 0.1
0.1 0.1 0.1 0.1 0.1 0.1 0.1 0.1
0.1 0.1 0.1 0.1 0.1 0.1 0.1 0.1
0.1 0.1 0.1 0.1 0.1 0.1 0.1 0.1
0.1 0.1 0.1 0.1 0.1 0.1 0.1 0.1
0.1 0.1 0.1 0.1 0.1 0.1 0.1 0.1
0.1 0.1 0.1 0.1 0.1 0.1 0.1 0.1
0.1 0.1 0.1 0.1 0.1 0.1 0.1 0.1
0.1 0.1 0.1 0.1 0.1 0.1 0.1 0.1
0.1 0.1 0.1 0.1
